train/model_quantized.tflite (tflite, 9928 bytes, 8 tensors)

sequential/dense_1/MatMul f4 [4, 16]
0	0xbe8dcf68	-0.276973
1	0x3e128bc3	0.14311127
2	0xbe328250	-0.17432523
3	0x3e9fd4b2	0.3121696
4	0x3e9ad46d	0.30240193
5	0x3c7a7daa	0.01528875
6	0x3e12c2f0	0.14332175
7	0xbe6965c0	-0.22792721
8	0xbe30053d	-0.17189498
9	0x3def7a3d	0.11693237
10	0x3d115bec	0.035488054
11	0x3ed96a40	0.42463875
12	0xbe22f22a	-0.15912691
13	0xbe29e8e7	-0.16592751
14	0xbe91cdfd	-0.2847747
15	0x3ea7c58c	0.32767904
16	0xbeafe5e2	-0.34355074
17	0x3cfb02c3	0.030640965
18	0xbe82c3a7	-0.25539896
19	0x3eca8bb4	0.3955971
20	0x3e5c2cee	0.21501514
21	0xbcf2480e	-0.029575374
22	0xbe0eae8f	-0.13933776
23	0xbe5690aa	-0.20953622
24	0xbec94b5e	-0.39315313
25	0x3d8a2448	0.06745201
26	0x3cc92f97	0.024558825
27	0x3ec6ede6	0.38853377
28	0xbe5cf929	-0.21579422
29	0xbe52d49d	-0.20588918
30	0xbe8be5a8	-0.2732365
31	0x3ea37bbf	0.31930348
32	0xbea2e86d	-0.31817952
33	0x3c367d2c	0.011138242
34	0xbeb100f1	-0.3457103
35	0xbe032e9d	-0.1281075
36	0x3e7ea59c	0.24867862
37	0x3d3d998c	0.04628901
38	0x3e13a0c8	0.14416802
39	0xbe0f031d	-0.13966031
40	0xbf010149	-0.50392586
41	0x3e0fcd22	0.14043096
42	0x3dc3f167	0.09567528
43	0x3ee28408	0.44241357
44	0xbe4d8d64	-0.20073467
45	0xbe322dc6	-0.17400274
46	0xbe55af21	-0.20867588
47	0x3eb4fd99	0.3534973
48	0xbe8cd8a5	-0.27509037
49	0x3d3b46f4	0.045721963
50	0xbe845733	-0.25847778
51	0xbd2ec663	-0.042669665
52	0x3e8c045a	0.2734707
53	0x3dd5b6f8	0.10435289
54	0x3e3f2d1d	0.18669553
55	0xbe51ec04	-0.20500189
56	0xbe8edaaa	-0.27901202
57	0x3d9fa5da	0.077953056
58	0x3db9419b	0.090457164
59	0x3ecf5b31	0.4049926
60	0xbe48a449	-0.1959392
61	0xbe142307	-0.14466487
62	0xbe92f197	-0.28699943
63	0x3ebe3a01	0.37153628

sequential/conv2d/BiasAdd/ReadVariableOp f4 [8]
0	0xc01f67e1	-2.4907153
1	0x3f3210b8	0.6955676
2	0xbfb889a9	-1.441701
3	0x3d49cbc2	0.049266584
4	0xc03c367b	-2.9408252
5	0xc00fa2e3	-2.2443168
6	0xbfccc719	-1.599826
7	0xbfd40ee6	-1.6567047

sequential/conv2d_1/BiasAdd/ReadVariableOp f4 [16]
0	0x3f40adec	0.75265384
1	0xbec5614e	-0.385508
2	0x3ed906a1	0.4238787
3	0x3f3ad71d	0.72984487
4	0xbf7616e0	-0.96128654
5	0x3e034891	0.1282065
6	0xbf3e0996	-0.74233377
7	0xbeadb0a7	-0.33923838
8	0xbd56d3d1	-0.052448098
9	0x3fc3f126	1.5307968
10	0xbf746306	-0.954636
11	0xbf79e351	-0.9761248
12	0x3f812411	1.0089132
13	0xbe254c55	-0.161424
14	0x3ef3db87	0.47628424
15	0x3c033605	0.008008485

sequential/conv2d/Conv2D f4 [8, 4, 3, 1]
0	0xbde6d00e	-0.11270152
1	0x3e1057e0	0.14096022
2	0x3e4b31bb	0.1984319
3	0x3df5092c	0.1196464
4	0xbd6201b9	-0.055177424
5	0x3db8ef9a	0.09030075
6	0xbd5c938c	-0.05385165
7	0xbd4489b8	-0.0479829
8	0xbd0df011	-0.034652773
9	0x3d74c18c	0.059754893
10	0xbc752a50	-0.014963701
11	0xbd925ded	-0.07146821
12	0xbdbcecc0	-0.09224844
13	0xbdfa50fb	-0.12222477
14	0xbf02b952	-0.51064026
15	0x3e9234bb	0.28555855
16	0xbe4a13ce	-0.19734117
17	0xbe45c517	-0.19313465
18	0xbe8b4003	-0.27197275
19	0x3e98a3a5	0.2981235
20	0x3e141d90	0.14464402
21	0xbe202743	-0.15639977
22	0xbe24794c	-0.16061896
23	0xbe90c26d	-0.28273335
24	0x3d58fd73	0.052976083
25	0xbde0175a	-0.10941954
26	0xbd92c5dd	-0.07166646
27	0x3e2e96d1	0.1704972
28	0x3d38e351	0.04513866
29	0xbd42952e	-0.04750555
30	0x3e3d12ac	0.18464154
31	0xbe0e850b	-0.1391794
32	0x3cd4b290	0.025964051
33	0x3e4d5330	0.20051265
34	0x3e05f0ae	0.13080093
35	0x3ccbeaf7	0.024892313
36	0x3d6c217a	0.057649113
37	0x3e50d949	0.20395388
38	0xbddfee48	-0.109341204
39	0x3e509fc7	0.2037345
40	0xbda6c45a	-0.0814292
41	0xbe2c2e37	-0.16814505
42	0x3e083646	0.13301954
43	0xbe111403	-0.1416779
44	0xbe354f00	-0.17705917
45	0x3da3d611	0.07999814
46	0xbdc7348c	-0.097268194
47	0xbe8f240b	-0.27957186
48	0xbd8536cd	-0.06504593
49	0xbd36ba8b	-0.044611495
50	0x3ea2ac7a	0.31772214
51	0xb8e784b4	-0.00011039656
52	0xbdd0a018	-0.101867855
53	0x3e87cf25	0.26525226
54	0xbbbce72e	-0.0057648635
55	0xbd3c0f3e	-0.045912974
56	0xbe22a088	-0.1588155
57	0xbe3afdd5	-0.18260892
58	0x3c46566b	0.012105565
59	0xbecea34e	-0.40358967
60	0x3e1854ec	0.14876145
61	0xbdf5a83d	-0.119949795
62	0xbd3d6f08	-0.046248466
63	0xbd1c7064	-0.03819312
64	0xbdc93738	-0.09824985
65	0x3dc6a417	0.096992664
66	0x3c326bc3	0.01088995
67	0xbdd15ab5	-0.10222379
68	0xbdb6c9de	-0.08925222
69	0x3daac433	0.08338203
70	0xbe5143c4	-0.20436007
71	0xbd3ea3bb	-0.046542864
72	0xbe017b04	-0.12644583
73	0xbe005a6b	-0.12534492
74	0xbdf9cdde	-0.12197469
75	0x3ca0d0b2	0.019630764
76	0xbd98ac24	-0.07454708
77	0x3dfbe844	0.123001605
78	0x3dea9c33	0.11455574
79	0xbccadadd	-0.024762565
80	0xbdd8753f	-0.10569238
81	0x3c89bd69	0.01681395
82	0xbe286c5f	-0.1644759
83	0x3baf1b34	0.005343819
84	0xbcf9046b	-0.030397614
85	0xbc9ed0bc	-0.019386642
86	0xbe78ef65	-0.24310072
87	0x3d0144ca	0.031559743
88	0xbb4c5a9a	-0.0031181932
89	0x3d7ed05f	0.062210437
90	0x3d79e595	0.061009962
91	0x3ddb5b25	0.10710744
92	0x3dfd9786	0.123824164
93	0x3d4d6ecb	0.05015449
94	0x3c0fc367	0.008774615
95	0x3e639a0f	0.22226737

sequential/conv2d_1/Conv2D f4 [16, 4, 1, 8]
0	0xbef55e96	-0.47923726
1	0xbeb44e9f	-0.35216233
2	0xbe9d8b65	-0.30770412
3	0xbf0da403	-0.5532839
4	0xbee0d352	-0.43911225
5	0xbece2a62	-0.4026671
6	0xbf02bead	-0.510722
7	0xbe0e7183	-0.13910489
8	0xbe2a57d1	-0.16635062
9	0x3ee35b1a	0.44405442
10	0xbd59af93	-0.053145956
11	0x3bad4966	0.005288291
12	0x3da429c6	0.0801578
13	0xbe0e58eb	-0.13901107
14	0xbe8826da	-0.2659214
15	0x3ee13bae	0.43990844
16	0xbd161846	-0.036644243
17	0x3dfba58f	0.12287437
18	0x3d42398f	0.047418173
19	0x3e00f83b	0.12594692
20	0xbdf18a2b	-0.117939316
21	0xbe2e3db4	-0.17015725
22	0xbdd8d807	-0.10588079
23	0x3e09794c	0.13425177
24	0x3e1cb898	0.15304792
25	0x3d09e4ab	0.03366534
26	0x3d9e49ae	0.07728897
27	0x3d9a8ecf	0.0754677
28	0x3df1869c	0.11793253
29	0xbcf27049	-0.029594557
30	0x3c54fe99	0.013000154
31	0xbc25b413	-0.010113734
32	0x3c38b0cd	0.011272621
33	0xbdfc893f	-0.12330865
34	0x3c8e1bcf	0.017347245
35	0xbc84b450	-0.016199261
36	0x3b13a864	0.0022530789
37	0xbd3170a3	-0.04332031
38	0x3e45e145	0.19324215
39	0xbe0e290b	-0.13882844
40	0xbde173a2	-0.11008383
41	0xbdb1b3a2	-0.0867684
42	0xbd59eafd	-0.053202618
43	0x3af779c0	0.0018880889
44	0x3ecd5784	0.40105832
45	0x3db45080	0.08804417
46	0x3e80ce16	0.2515723
47	0xbe54722f	-0.20746683
48	0xbe83e874	-0.25763285
49	0xbd285d17	-0.041104402
50	0xbd1ebaa8	-0.038752228
51	0xbe31ec36	-0.17375264
52	0xbee3c24d	-0.44484177
53	0xbdceaaa2	-0.100911394
54	0xbe16065d	-0.14650865
55	0x3e067382	0.1313
56	0x3c12d677	0.008962265
57	0xbeee2d60	-0.46518993
58	0x3d3fc6fa	0.04682062
59	0x3cac94f2	0.021067116
60	0x3e302e15	0.17205079
61	0xbe6ca703	-0.23110585
62	0xbea14ff0	-0.315063
63	0x3d611b7a	0.054957844
64	0xbd3bcf98	-0.045852274
65	0x3cf08a28	0.029362753
66	0xbe467ac3	-0.19382767
67	0x3d1d86a5	0.038458485
68	0xbcd7295f	-0.026264844
69	0xbe6792e5	-0.2261463
70	0xbe805518	-0.2506492
71	0x3c205422	0.009785684
72	0x3e151028	0.14556944
73	0x3e637b89	0.22215094
74	0xbe94f9c3	-0.29096803
75	0xbe4caede	-0.19988582
76	0xbe09ac70	-0.13444686
77	0xbdbae0bc	-0.09124896
78	0x3d7e7fd9	0.062133644
79	0x3eef818d	0.46778527
80	0xbda874d0	-0.08225405
81	0x3d523498	0.05131969
82	0xbebc5d5e	-0.36789984
83	0xbe5ff17d	-0.21869464
84	0xbde0d83e	-0.10978745
85	0x3dd920c3	0.10601952
86	0xbc2cc798	-0.010545634
87	0xbd5d9ec3	-0.054106485
88	0x3e3c79ac	0.18405789
89	0x3e3cdf2c	0.18444508
90	0xbf131a25	-0.5746177
91	0xbe39574b	-0.18099706
92	0xbd94f6ba	-0.07273622
93	0x3c933f50	0.017974526
94	0x3d98079f	0.074233286
95	0xbdff1d61	-0.124567755
96	0xbdce1403	-0.10062411
97	0x3ecb6d6b	0.39731917
98	0xbd2aa32f	-0.04165953
99	0x3dffe67e	0.12495135
100	0x3d81b463	0.06333234
101	0x3cb642fa	0.022248734
102	0x3d899016	0.06716935
103	0xbd098e7e	-0.033583157
104	0x3d7b6b2b	0.0613815
105	0x3ec02243	0.3752614
106	0xbba27d25	-0.004958766
107	0x3e1f8588	0.15578282
108	0xbca2418f	-0.019806651
109	0xbe7ae5de	-0.2450175
110	0xbe5d7873	-0.21627979
111	0x3e29d17a	0.16583815
112	0xbc978e6a	-0.018500526
113	0xbf29fc8e	-0.6640099
114	0x3d8632d7	0.06552666
115	0xbce5bbce	-0.028043654
116	0xbe1a8115	-0.15088303
117	0xbf214305	-0.6299289
118	0xbf5c80b4	-0.86133885
119	0xbd6c0a88	-0.05762723
120	0xbd85a3c5	-0.06525377
121	0xbf97b897	-1.1853207
122	0xbc3d2465	-0.011544322
123	0xbd402608	-0.04691127
124	0xbce700db	-0.02819865
125	0xbf497be8	-0.7870469
126	0xbf79994e	-0.9749955
127	0xbd6b11fc	-0.057390198
128	0xbec1f405	-0.37881485
129	0x3dcd93c4	0.1003795
130	0xbd33eb1e	-0.043925397
131	0xbea72ee7	-0.3265297
132	0xbccc55d6	-0.024943274
133	0x3eeee754	0.46660864
134	0x3e4ef03a	0.20208827
135	0xbe929696	-0.28630513
136	0xbe47c172	-0.19507387
137	0xbd7a280b	-0.061073344
138	0xbe140140	-0.14453602
139	0xbe506b1b	-0.20353357
140	0x3e272385	0.16322143
141	0x3bb48d02	0.0055099735
142	0x3e37ed6d	0.17961664
143	0xbe958cf6	-0.29209107
144	0xbe86fa0c	-0.26362646
145	0x3dcd83a2	0.100348726
146	0xbdb3ceb2	-0.087796584
147	0xbc2cd467	-0.010548688
148	0xbde0ba9e	-0.109730944
149	0xbe2259bd	-0.15854545
150	0xbe67e87d	-0.22647281
151	0x3b7d0e5e	0.00386133
152	0xbc812173	-0.01576302
153	0xbe4d76f2	-0.20064905
154	0x3e819c88	0.25314736
155	0x3d8be0d2	0.068299904
156	0xbf22942e	-0.63507354
157	0xbe6e24a4	-0.23256165
158	0xbea298ab	-0.317571
159	0x3eb2d53e	0.34928316
160	0xbd9df6b4	-0.077130705
161	0xbdf56ba6	-0.11983423
162	0x3bdc1f60	0.0067176074
163	0xbe18baf4	-0.14915067
164	0xbdadebfd	-0.08492277
165	0xbed47df2	-0.4150234
166	0xbee6a498	-0.4504745
167	0x3e00b2bc	0.12568182
168	0x3d9098c9	0.070603915
169	0x3ea36b20	0.31917667
170	0x3dfd27d6	0.12361114
171	0xbe397626	-0.18111476
172	0xbe2d73d8	-0.16938722
173	0xbf19a066	-0.60010374
174	0xbf321c12	-0.6957408
175	0x3eb72c98	0.3577621
176	0x3cfc19ad	0.030773962
177	0x3e27dc87	0.16392718
178	0xbe0c80cf	-0.13721012
179	0xbdcb0d4c	-0.099146456
180	0x3de26388	0.1105414
181	0xbe7c98c3	-0.24667649
182	0xbe733b5f	-0.23753117
183	0xbe051e57	-0.12999855
184	0xbd163293	-0.036669325
185	0x3da43d92	0.08019556
186	0xbd1a8d50	-0.037732422
187	0x3d8059dc	0.06267139
188	0x3dd858cc	0.10563812
189	0x3ecc20e9	0.39868858
190	0x3ed31be6	0.41232222
191	0xbe0cd2e2	-0.1375232
192	0x3e01d135	0.12677462
193	0xbd9a1ac3	-0.07524636
194	0x3ca28250	0.019837528
195	0x3ee23f26	0.44188803
196	0x3dd219e2	0.10258843
197	0xbd2e7ac5	-0.04259755
198	0xbdf31bc7	-0.118705325
199	0x3e482ef3	0.1954916
200	0x3de431e4	0.111423284
201	0xbd1b3fc1	-0.037902597
202	0xbca112af	-0.01966223
203	0x3e312fd0	0.17303395
204	0x3e7c9892	0.24667576
205	0xbe3a2ca5	-0.18181093
206	0xbe73c986	-0.23807344
207	0xbe02bf1b	-0.12768213
208	0xbcd41e9e	-0.025893506
209	0xbe3cb65c	-0.1842894
210	0xbe3c7fc7	-0.18408118
211	0xbe0fa372	-0.14027193
212	0x3e5023aa	0.20326105
213	0xbd8dc7ef	-0.069229
214	0xbe5e1c99	-0.21690597
215	0xbd9e0c39	-0.07717175
216	0xbdd89ccd	-0.105767824
217	0x3d112c47	0.035442617
218	0xbe87536d	-0.26430836
219	0xbe7168d4	-0.23575145
220	0xbdc60b75	-0.09670154
221	0xbc9bdbf0	-0.019025773
222	0xbd4d695e	-0.050149314
223	0x3b47b4e4	0.003047281
224	0xbe4cfd2d	-0.20018454
225	0x3ebf3a05	0.37348953
226	0xbebfa338	-0.37429214
227	0x3cea2d7b	0.02858614
228	0xbd2a4adb	-0.041575294
229	0xbd248299	-0.04016361
230	0x3e094be6	0.13407859
231	0xbe23e132	-0.16003874
232	0xbe2677f1	-0.16256692
233	0x3de62675	0.11237804
234	0xbe4e1074	-0.20123464
235	0x3da2d2e0	0.079503775
236	0xbda45ac8	-0.08025128
237	0x3de86ef6	0.11349289
238	0xb989d0c7	-0.00026286228
239	0xbda0a6b9	-0.078443
240	0x3ce7565f	0.028239427
241	0x3eacc48e	0.3374371
242	0xbe92a931	-0.28644708
243	0x3de76039	0.1129765
244	0x3d6b4eaa	0.057448067
245	0x3d6dced6	0.058058582
246	0xbc50558a	-0.012715707
247	0xbd6ad3cf	-0.057330903
248	0xbd557267	-0.052111056
249	0x3cc70edf	0.024299083
250	0xbe888ace	-0.266684
251	0x3d255e2f	0.040373024
252	0x3de57c95	0.11205403
253	0xbd424b20	-0.047434926
254	0xbc99232c	-0.01869353
255	0xbe4ea562	-0.20180276

sequential/dense/BiasAdd/ReadVariableOp f4 [16]
0	0x3f41e636	0.757419
1	0xbebd11c7	-0.36927626
2	0xbea26b17	-0.31722328
3	0xbe985ffa	-0.29760724
4	0xbeb60002	-0.3554688
5	0x4006db5b	2.1071384
6	0xbebed585	-0.37272277
7	0x3d04a1e6	0.03238096
8	0xbe9dfdf2	-0.30857807
9	0xbe257c95	-0.16160806
10	0x3fad4b4f	1.3538607
11	0x3e4cc809	0.19998182
12	0xbe6ce0fc	-0.231327
13	0x401164c3	2.271775
14	0x3d3aa877	0.045570817
15	0x3cd6d8a7	0.026226355

sequential/dense_1/BiasAdd/ReadVariableOp f4 [4]
0	0xbff7b125	-1.9350935
1	0x402411f0	2.5635948
2	0xc023f90b	-2.5620754
3	0xbf84a702	-1.0363467

sequential/dense/MatMul i1 [16, 224] scale=0.00865146 zero_point=0
0	0x0e	0.12112044
1	0xf1	-0.12977189
2	0xfa	-0.051908758
3	0x2b	0.37201276
4	0x01	0.00865146
5	0x01	0.00865146
6	0xea	-0.19033211
7	0x0a	0.08651459
8	0xfc	-0.03460584
9	0x2c	0.38066423
10	0xfc	-0.03460584
11	0xfe	-0.01730292
12	0x13	0.16437773
13	0x3a	0.5017847
14	0x0d	0.11246897
15	0xdc	-0.31145254
16	0x05	0.043257296
17	0xf4	-0.103817515
18	0x17	0.19898356
19	0xf2	-0.12112044
20	0x02	0.01730292
21	0x13	0.16437773
22	0xeb	-0.18168065
23	0xf4	-0.103817515
24	0xf7	-0.077863134
25	0xf6	-0.08651459
26	0xeb	-0.18168065
27	0xef	-0.14707482
28	0x00	0.0
29	0x01	0.00865146
30	0x03	0.025954379
31	0xdf	-0.28549817
32	0xf7	-0.077863134
33	0xef	-0.14707482
34	0x06	0.051908758
35	0xe2	-0.25954378
36	0x02	0.01730292
37	0x10	0.13842335
38	0x07	0.06056022
39	0xfa	-0.051908758
40	0xff	-0.00865146
41	0x07	0.06056022
42	0xe6	-0.22493795
43	0xf3	-0.11246897
44	0xff	-0.00865146
45	0x18	0.20763503
46	0xf2	-0.12112044
47	0xea	-0.19033211
48	0x0e	0.12112044
49	0x25	0.320104
50	0x11	0.14707482
51	0x05	0.043257296
52	0x23	0.30280107
53	0x13	0.16437773
54	0x02	0.01730292
55	0xef	-0.14707482
56	0xfd	-0.025954379
57	0x00	0.0
58	0xdf	-0.28549817
59	0xfd	-0.025954379
60	0xfb	-0.043257296
61	0x19	0.2162865
62	0xf4	-0.103817515
63	0xf0	-0.13842335
64	0xf9	-0.06056022
65	0x2c	0.38066423
66	0xf9	-0.06056022
67	0x09	0.077863134
68	0x17	0.19898356
69	0x05	0.043257296
70	0xfd	-0.025954379
71	0x01	0.00865146
72	0xfd	-0.025954379
73	0x13	0.16437773
74	0xec	-0.17302918
75	0xe9	-0.19898356
76	0xff	-0.00865146
77	0x16	0.19033211
78	0xe8	-0.20763503
79	0xfa	-0.051908758
80	0xf2	-0.12112044
81	0x10	0.13842335
82	0xeb	-0.18168065
83	0x0d	0.11246897
84	0x0b	0.09516606
85	0x01	0.00865146
86	0x0d	0.11246897
87	0xef	-0.14707482
88	0x01	0.00865146
89	0xfd	-0.025954379
90	0x0f	0.12977189
91	0xf3	-0.11246897
92	0xeb	-0.18168065
93	0x0e	0.12112044
94	0x02	0.01730292
95	0xfd	-0.025954379
96	0xfd	-0.025954379
97	0x13	0.16437773
98	0xf1	-0.12977189
99	0x05	0.043257296
100	0x12	0.15572627
101	0x16	0.19033211
102	0xf7	-0.077863134
103	0xf5	-0.09516606
104	0x0e	0.12112044
105	0x0d	0.11246897
106	0xf5	-0.09516606
107	0xf6	-0.08651459
108	0xfb	-0.043257296
109	0x0c	0.103817515
110	0x08	0.06921168
111	0xef	-0.14707482
112	0xf4	-0.103817515
113	0x11	0.14707482
114	0xe5	-0.23358941
115	0xfd	-0.025954379
116	0x19	0.2162865
117	0x08	0.06921168
118	0x04	0.03460584
119	0xf8	-0.06921168
120	0xf1	-0.12977189
121	0x12	0.15572627
122	0x08	0.06921168
123	0xe7	-0.2162865
124	0x02	0.01730292
125	0x18	0.20763503
126	0xf8	-0.06921168
127	0x02	0.01730292
128	0xea	-0.19033211
129	0x13	0.16437773
130	0x0f	0.12977189
131	0xee	-0.15572627
132	0x07	0.06056022
133	0x08	0.06921168
134	0x0d	0.11246897
135	0xfb	-0.043257296
136	0xfc	-0.03460584
137	0x09	0.077863134
138	0x0b	0.09516606
139	0x07	0.06056022
140	0xf2	-0.12112044
141	0x13	0.16437773
142	0xfe	-0.01730292
143	0x07	0.06056022
144	0xf1	-0.12977189
145	0x20	0.2768467
146	0xf6	-0.08651459
147	0x06	0.051908758
148	0x05	0.043257296
149	0x03	0.025954379
150	0xef	-0.14707482
151	0xf4	-0.103817515
152	0xe6	-0.22493795
153	0x28	0.34605837
154	0x0c	0.103817515
155	0xfb	-0.043257296
156	0x03	0.025954379
157	0x16	0.19033211
158	0xfb	-0.043257296
159	0xf9	-0.06056022
160	0xf5	-0.09516606
161	0x12	0.15572627
162	0x19	0.2162865
163	0xfd	-0.025954379
164	0x15	0.18168065
165	0xfd	-0.025954379
166	0xf3	-0.11246897
167	0x0f	0.12977189
168	0xec	-0.17302918
169	0x14	0.17302918
170	0x01	0.00865146
171	0xfe	-0.01730292
172	0x03	0.025954379
173	0x0a	0.08651459
174	0x05	0.043257296
175	0xfb	-0.043257296
176	0xf8	-0.06921168
177	0x08	0.06921168
178	0x1a	0.22493795
179	0x01	0.00865146
180	0x0b	0.09516606
181	0x09	0.077863134
182	0xff	-0.00865146
183	0x0a	0.08651459
184	0xf5	-0.09516606
185	0x17	0.19898356
186	0x17	0.19898356
187	0x00	0.0
188	0x1c	0.24224088
189	0x11	0.14707482
190	0xff	-0.00865146
191	0x07	0.06056022
192	0xf5	-0.09516606
193	0x05	0.043257296
194	0xfc	-0.03460584
195	0xfb	-0.043257296
196	0x07	0.06056022
197	0x06	0.051908758
198	0xf8	-0.06921168
199	0x08	0.06921168
200	0xd5	-0.37201276
201	0x12	0.15572627
202	0x12	0.15572627
203	0xfd	-0.025954379
204	0x14	0.17302918
205	0x23	0.30280107
206	0x04	0.03460584
207	0x05	0.043257296
208	0xf6	-0.08651459
209	0x04	0.03460584
210	0x07	0.06056022
211	0x18	0.20763503
212	0xe9	-0.19898356
213	0x1c	0.24224088
214	0x13	0.16437773
215	0xf3	-0.11246897
216	0xca	-0.46717882
217	0x16	0.19033211
218	0xff	-0.00865146
219	0x03	0.025954379
220	0x19	0.2162865
221	0x05	0.043257296
222	0xfe	-0.01730292
223	0x0d	0.11246897
224	0x05	0.043257296
225	0xde	-0.29414964
226	0xe6	-0.22493795
227	0xd9	-0.33740693
228	0xe5	-0.23358941
229	0xf1	-0.12977189
230	0x07	0.06056022
231	0xe5	-0.23358941
232	0xf8	-0.06921168
233	0xf5	-0.09516606
234	0x09	0.077863134
235	0xec	-0.17302918
236	0xed	-0.16437773
237	0xf7	-0.077863134
238	0xe4	-0.24224088
239	0xf6	-0.08651459
240	0xe8	-0.20763503
241	0xd9	-0.33740693
242	0xdf	-0.28549817
243	0xe5	-0.23358941
244	0xe9	-0.19898356
245	0xed	-0.16437773
246	0xe3	-0.25089234
247	0xed	-0.16437773
248	0x00	0.0
249	0xee	-0.15572627
250	0xf5	-0.09516606
251	0xdf	-0.28549817
252	0x12	0.15572627
253	0xd4	-0.38066423
254	0xcb	-0.45852736
255	0xfb	-0.043257296
