train/model.tflite (tflite, 4156 bytes, 4 tensors)

sequential/conv1d/BiasAdd/ReadVariableOp f4 [32]
0	0xbcbc5bb3	-0.022992944
1	0xbd8a3135	-0.06747667
2	0x3dd7a4db	0.105294906
3	0x3e4a1a91	0.19736697
4	0x3ef7c758	0.48394275
5	0x3f15f167	0.58571476
6	0x3f02d65d	0.5110834
7	0x3edfaa2d	0.4368452
8	0x3e91218c	0.28345907
9	0xbe534a6b	-0.20633857
10	0xbe7dc333	-0.24781494
11	0x3f208455	0.6270192
12	0xbc7c3c46	-0.01539523
13	0xbe858b1a	-0.2608269
14	0xbf532a94	-0.82486844
15	0x3ee65166	0.44983977
16	0x3ea04385	0.31301513
17	0xbea4e6ed	-0.32207432
18	0x3f3fc404	0.7490847
19	0xbe80330f	-0.25038955
20	0xbdd056c2	-0.10172798
21	0xbe9107e2	-0.28326327
22	0x3ec022f6	0.37526673
23	0x3dc1c6a5	0.094617166
24	0xbf65da06	-0.897858
25	0xbf80058b	-1.0001692
26	0x3d85c354	0.065313965
27	0x3e2999b1	0.16562535
28	0xbd63f9ed	-0.05565827
29	0xbe95b402	-0.29238898
30	0xbf847064	-1.0346799
31	0xbe215541	-0.15755178

sequential/conv1d/Conv1D f4 [32, 1, 3, 1]
0	0x3e5a8111	0.21338297
1	0xbbefe458	-0.007320922
2	0xbe84af00	-0.25914764
3	0x3d213a52	0.03936226
4	0x3d8e09a1	0.0693543
5	0xbdcf5fe9	-0.10125715
6	0xbf0b0841	-0.5430947
7	0xbf2503c7	-0.6445889
8	0xbf13f719	-0.57798916
9	0x3fa04ff8	1.2524405
10	0x3ee84815	0.45367494
11	0x3ef4cfe2	0.47814852
12	0x3f03cd45	0.5148509
13	0x3e18405f	0.14868306
14	0x3e870696	0.26372212
15	0x3efd49d5	0.49470392
16	0xbd70cef4	-0.058791116
17	0x3dc88dc2	0.09792663
18	0xbf681428	-0.90655756
19	0x3f024b95	0.5089658
20	0xbf00ef54	-0.50365186
21	0x3ebdf68e	0.3710217
22	0xbd9ff7e6	-0.07810955
23	0x3dcc95d1	0.09989513
24	0x3cd9a9d7	0.026570244
25	0x3fa804d6	1.3126476
26	0x3edad4bd	0.4274043
27	0x40075496	2.1145377
28	0x3f83ea02	1.0305789
29	0x3f1246f9	0.57139546
30	0xbeff092b	-0.49811682
31	0x3d4db2ef	0.050219472
32	0x3e3759c3	0.17905335
33	0x3f0ced62	0.5504972
34	0x3f880648	1.0626917
35	0x3ebc5197	0.36780998
36	0x3bc1e201	0.0059168343
37	0x3d99be3c	0.075069875
38	0xbe58d2e7	-0.21174203
39	0xbf19fe29	-0.6015344
40	0xbe9d5901	-0.30731967
41	0x3ecadd3c	0.39621913
42	0x3de7d6bf	0.113202564
43	0xbf42154e	-0.7581376
44	0x3d794918	0.060860723
45	0x3d33633e	0.043795817
46	0x3f6b51b9	0.91921574
47	0xbe9608b4	-0.29303515
48	0x3ea5353c	0.32267177
49	0x3fd6bb87	1.6775979
50	0xbe04d48d	-0.12971707
51	0xbd8380bf	-0.06421041
52	0xbf27ea13	-0.65591544
53	0xbf4a2ca6	-0.7897438
54	0xbe960784	-0.2930261
55	0x3f81a92a	1.012975
56	0x3ed08b98	0.40731502
57	0xbe9b53c6	-0.30337352
58	0xbe8a1e2c	-0.26976144
59	0x3e9278fe	0.28607935
60	0x3ff8345a	1.9390976
61	0xbf339166	-0.70143735
62	0xbe858105	-0.26074997
63	0xbf0287fe	-0.5098876
64	0xbe9ff605	-0.31242386
65	0x3ec04345	0.37551323
66	0x3ea61787	0.32439825
67	0x3fa678b4	1.3005586
68	0x3ee9e2bf	0.45680806
69	0xbe89f32f	-0.26943347
70	0x3deb0aae	0.11476646
71	0xbf034fb7	-0.5129351
72	0x3fb51751	1.4147741
73	0xbf74a711	-0.95567423
74	0x3eb5df4a	0.3552192
75	0x3c643f3b	0.013931091
76	0xbe8ec0e8	-0.2788155
77	0x3efeb3e8	0.49746633
78	0x3ff5ff49	1.9218532
79	0x3f2dfcb9	0.6796375
80	0x3f449b6e	0.76799667
81	0xbeef838d	-0.46780053
82	0x3fd782b9	1.6836768
83	0xbec03de3	-0.37547216
84	0xbc4eaa2b	-0.012613813
85	0x3de2c122	0.110719934
86	0xbe70613d	-0.23474593
87	0xbe851502	-0.2599259
88	0xbebe9d54	-0.37229407
89	0x3e8bc902	0.27301794
90	0xbf376827	-0.716433
91	0x3e82ffe2	0.25585848
92	0x3efdc9eb	0.49568114
93	0xbe798364	-0.24366528
94	0xbe53e19c	-0.20691532
95	0x3e42a562	0.19008401

sequential/dense/BiasAdd/ReadVariableOp f4 [3]
0	0xbee2ccff	-0.44297025
1	0x3f0227b4	0.5084183
2	0xbeb97326	-0.36220664

sequential/dense/MatMul f4 [3, 32]
0	0xbebc6baf	-0.36800906
1	0xbeb4f7c2	-0.35345274
2	0xbfee849b	-1.8634218
3	0xc01cc596	-2.4495597
4	0xbe8f069c	-0.2793473
5	0xbf0788b9	-0.52943
6	0xc04113a7	-3.0168245
7	0xbf145405	-0.57940704
8	0xbc575150	-0.013141945
9	0xbf4bdf4c	-0.796376
10	0x3e8e9893	0.2785078
11	0x3f7392ed	0.95146066
12	0xbeaf1f08	-0.34203362
13	0x3edabd50	0.4272256
14	0x3f51e09d	0.8198336
15	0x3f32bb69	0.69817215
16	0x3fded929	1.7410022
17	0x3f764125	0.9619315
18	0x3fa6539d	1.2994267
19	0xbe58f476	-0.21187004
20	0x405f17ba	3.4858232
21	0x3eab2f8c	0.33434713
22	0x3f14cca9	0.58124787
23	0x3f4e2e09	0.80538994
24	0x3d8102df	0.06299376
25	0x3fea4b24	1.8304181
26	0xc03fafaf	-2.9950979
27	0x4008a3a1	2.134987
28	0xbe84ddcc	-0.25950468
29	0xbeb71914	-0.3576132
30	0xc0754571	-3.8323634
31	0xbeb7fd8a	-0.35935622
32	0xbe305602	-0.1722031
33	0xbdb32faa	-0.087493256
34	0x3eed2124	0.46314347
35	0xbdc15bf6	-0.09441368
36	0x3f21b631	0.6316863
37	0x3f35ca03	0.7101137
38	0x3e8943d8	0.26809573
39	0x3ebaab60	0.36458874
40	0xc02c33e3	-2.690667
41	0x40080fac	2.1259565
42	0xbf169dd6	-0.5883459
43	0xc01cdad7	-2.450857
44	0xbed40161	-0.41407302
45	0xbf0d6360	-0.5522976
46	0x3fec2852	1.8449805
47	0xc09dbebb	-4.9295325
48	0xc03de5fc	-2.9671621
49	0x4036ec9a	2.858191
50	0x3f0b90fe	0.54518116
51	0xbf592f4c	-0.84837794
52	0xc0152a91	-2.330723
53	0xbf653271	-0.8953009
54	0xc025aaeb	-2.588557
55	0x3c0a4d9d	0.008441356
56	0xc082f343	-4.092195
57	0x4029392b	2.6441143
58	0x3f7b2bd9	0.9811378
59	0xc06b69fe	-3.6783442
60	0xbde5f05a	-0.11227484
61	0xbf1a7954	-0.6034138
62	0xbff5ccab	-1.9203085
63	0xbf1459b6	-0.5794939
64	0xbe840c3c	-0.25790584
65	0x3ea3044f	0.31839225
66	0x3f2ccdd2	0.67501557
67	0x3f07df91	0.5307551
68	0xbeedc52d	-0.46439496
69	0xbe1581cc	-0.14600295
70	0x3f9faddd	1.2474934
71	0xbed149e7	-0.40876696
72	0x3fa2221f	1.2666663
73	0xc0151284	-2.329255
74	0xbf0f3b87	-0.55950207
75	0x3f2afe3a	0.6679417
76	0xbd6cd344	-0.057818666
77	0x3eccbd32	0.39988095
78	0xc084edcf	-4.1540294
79	0xbf33185f	-0.6995906
80	0xbfc66f2e	-1.5502679
81	0xc0d55553	-6.6666656
82	0xbff15f22	-1.8857157
83	0x3e8b8f1a	0.27257615
84	0xbff1d347	-1.8892602
85	0x3ebf5fd1	0.3737779
86	0x3f9b99b0	1.2156277
87	0xbf7994c5	-0.9749263
88	0x4008bc37	2.1364877
89	0xc0a27824	-5.0771656
90	0xbeabe362	-0.33571917
91	0xbfc3cd9e	-1.5297124
92	0x3e9add2a	0.3024686
93	0x3c6e8751	0.014558629
94	0x407dc6ce	3.965259
95	0xbe95c6fa	-0.2925337
