train/model.tflite (tflite, 24020 bytes, 4 tensors)

sequential_3/dense_4/BiasAdd/ReadVariableOp f4 [3]
-0.08767275 0.055627238 0.014285922
00000000: c58d b3bd 63d9 633d 800f 6a3c

sequential_3/dense_3/BiasAdd/ReadVariableOp f4 [10]
-0.0041002664 0.007109776 0.009561287 0.015107151 0.0064323475 -0.0031621559 -0.005873648 -0.0031618762
0.022246828 0.0
00000000: 875b 86bb 20f9 e83b f2a6 1c3c fc83 773c
00000010: 71c6 d23b 2c3c 4fbb bb77 c0bb 7b37 4fbb
00000020: fb3e b63c 0000 0000

sequential_3/dense_3/MatMul f4 [10, 546]
0.0023073966 -0.027266271 -0.094510734 0.10061605 0.075354464 -0.024744825 -0.045930512 -0.08437506
0.081780724 -0.080091156 0.057894547 0.09085017 -0.018907776 -0.038969405 0.041826494 -0.0028881365
-0.049043063 0.012362676 -0.04439006 0.021939322 0.04053392 -0.068052515 0.042199496 0.07966847
0.072804645 -0.07889696 0.052199595 0.014553952 0.019755824 0.049448512 -0.023782486 0.05188216
0.031459145 0.0074806632 -0.034764953 0.08000103 0.07236583 -0.074053526 0.008713848 -0.01176693
-0.03442917 0.024679128 -0.056936298 -0.014584179 0.022891581 -0.04405005 -0.06497804 0.040651213
0.1011843 0.07379448 0.04167664 0.07572843 -0.02254887 0.06403296 -0.040801764 -0.09361938
-0.10267359 -0.08559687 0.09863751 0.009280504 -0.011787656 0.0950324 -0.013034786 -0.00200013
-0.06306332 0.010187752 -0.06383509 -0.08403344 -0.10643521 0.0780211 0.007863046 -0.0063997754
0.0830337 -0.07940996 -0.06669538 -0.005115766 0.027416585 0.09155779 0.09530759 -0.04492787
-0.046187498 0.06438577 -0.0006662756 0.064585194 0.06601859 -0.0027247733 -0.0089652045 -0.05488795
-0.045631506 0.013394028 -0.003573057 -0.014734193 -0.009375658 -0.10436373 -0.04577739 -0.045095995
0.009803149 -0.07410972 0.016823448 -0.063926294 0.03384939 -0.05994625 -0.06657373 -0.07473137
-0.025617255 0.019464362 0.047794074 -0.09060442 -0.03458041 -0.0070894873 -0.025900494 -0.013679217
0.062462803 0.07405804 -0.09720249 -0.08599507 -0.038502015 -0.06841444 -0.051716287 0.0005289458
-0.06268499 -0.106086515 0.04887733 0.023541413 -0.105542354 -0.032686967 0.02333161 -0.015308386
0.09884165 -0.011692311 0.07711219 0.016037513 0.04478562 0.08918627 -0.036760535 -0.065276064
-0.086269744 0.077448465 0.017246654 0.09668014 -0.013267108 -0.0076124407 0.010151943 0.012851865
-0.055975188 0.09093589 0.06427729 -0.024920532 -0.0111458 -0.040640485 0.010851994 0.013680014
0.0019337055 0.010326077 -0.06504869 0.04638193 -0.098101035 -0.00074691477 0.065305844 -0.0058098035
-0.00093709386 0.07373002 -0.04293557 0.044157207 -0.06689944 -0.057129875 -0.05892517 -0.084979564
0.009178118 0.07766332 0.087907776 0.07913845 -0.05405389 0.08048206 -0.030750714 0.04227481
0.035840575 -0.059588768 0.08323003 0.072830275 0.07357849 0.09959056 -0.010215417 0.07242033
-0.046185132 -0.0076246 0.07173865 -0.019235814 0.05559208 0.09785684 0.055553447 0.009275148
0.08724948 0.06586611 0.03934213 -0.0795994 0.050419748 -0.10477789 -0.09426428 0.08487493
-0.008049745 -0.041814227 -0.045229357 -0.07353291 -0.0014561242 -0.042014588 -0.03940646 0.0075883553
-0.080304295 0.015320629 0.0020009773 0.038553264 0.04940221 -0.03745217 -0.05760311 -0.036652673
0.043828808 0.008748374 -0.08642899 -0.07391244 0.020580238 -0.07276521 -0.011664386 -0.08989574
0.09531087 0.07938323 0.013492672 0.097911954 -0.052662045 -0.09815048 -0.08657864 -0.06011111
0.0878134 -0.05040263 0.061893962 -0.015384265 -0.008178361 -0.0146864485 -0.042503122 -0.10761971
0.00042299903 0.033596102 -0.033606887 0.017800778 -0.09262097 -0.008979586 0.049953137 -0.076927915
0.06185158 -0.03161178 0.08356428 0.022368668 0.032723058 -0.100279026 -0.034308717 -0.014502905
00000000: b137 173b 845d dfbc d88e c1bd ca0f ce3d
00000010: 7153 9a3d a9b5 cabc a221 3cbd d5cc acbd
00000020: a77c a73d d506 a4bd d522 6d3d a70f ba3d
00000030: 7be4 9abc 629e 1fbd 4252 2b3d e446 3dbb
00000040: 61e1 48bd d28c 4a3c 5ad2 35bd 18ba b33c
00000050: e506 263d 1e5f 8bbd 61d9 2c3d 3929 a33d
00000060: 9a1a 953d bb94 a1bd 3ecf 553d b373 6e3c
00000070: f7d6 a13c 868a 4a3d 7dd3 c2bc 6382 543d
00000080: 4edb 003d 5a20 f53b b265 0ebd 94d7 a33d
00000090: 8934 943d 60a9 97bd 87c4 0e3c 15ca 40bc
000000a0: 9a05 0dbd e22b ca3c 0936 69bd 7bf2 6ebc
000000b0: 2087 bb3c d36d 34bd 3513 85bd e381 263d
000000c0: b739 cf3d 8f21 973d 20b5 2a3d 8217 9b3d
000000d0: 68b8 b8bc b623 833d c01f 27bd 84bb bfbd
000000e0: 8846 d2bd 694d afbd 7602 ca3d 410d 183c
000000f0: 0321 41bc 59a0 c23d db8f 55bc 9d14 03bb
00000100: 5827 81bd 87ea 263c f9bb 82bd b919 acbd
00000110: b4fa d9bd 87c9 9f3d 01d4 003c 35b5 d1bb
00000120: 930d aa3d b0a1 a2bd 9697 88bd 28a2 a7bb
00000130: bf98 e03c a782 bb3d a030 c33d 4906 38bd
00000140: 1a2f 3dbd b0dc 833d 00a9 2eba 3e45 843d
00000150: c134 873d 1c92 32bb cbe2 12bc 30d2 60bd
00000160: 1ae8 3abd a072 5b3c f329 6abb af67 71bc
00000170: 5c9c 19bc a7bc d5bd 1381 3bbd 94b6 38bd
00000180: 639d 203c d6c6 97bd 54d1 893c caeb 82bd
00000190: a8a5 0a3d 338a 75bd cf57 88bd c30c 99bd
000001a0: 47db d1bc ba73 9f3c b8c3 433d cf8e b9bd
000001b0: 30a4 0dbd ee4e e8bb 462d d4bc cb1e 60bc
000001c0: ffd8 7f3d beab 973d 1912 c7bd 2f1e b0bd
000001d0: 4ab4 1dbd df1c 8cbd 75d4 53bd f4a8 0a3a
000001e0: fd60 80bd e343 d9bd 9833 483d ecd9 c03c
000001f0: 9726 d8bd c5e2 05bd ef21 bf3c 06d0 7abc
00000200: 7e6d ca3d 1b91 3fbc ffec 9d3d 1a61 833c
00000210: 2071 373d 4ba7 b63d 3792 16bd 75af 85bd
00000220: 31ae b0bd 4d9d 9e3d db48 8d3c 3d00 c63d
00000230: 495e 59bc c871 f9bb 5654 263c a190 523c
00000240: 3d46 65bd 993c ba3d d0a3 833d 2526 ccbc
00000250: e09c 36bc a376 26bd 90cc 313c 2322 603c
00000260: 6474 fd3a b52e 293c 3f38 85bd fbfa 3d3d
00000270: 32e9 c8bd 9acc 43ba 12bf 853d 2a60 bebb
00000280: 4ea7 75ba c4ff 963d 35dd 2fbd 30de 343d
00000290: 9302 89bd 0401 6abd 855b 71bd c409 aebd
000002a0: d15f 163c f20d 9f3d fe08 b43d 5713 a23d
000002b0: 9d67 5dbd c7d3 a43d ece8 fbbc 5a28 2d3d
000002c0: 91cd 123d 5a13 74bd 8274 aa3d 0a28 953d
000002d0: 52b0 963d 23f6 cb3d 905e 27bc 1c51 943d
000002e0: 9f2c 3dbd c8d7 f9bb b7eb 923d 6d94 9dbc
000002f0: 85b4 633d 2b69 c83d 038c 633d caf6 173c
00000300: dbaf b23d d0e4 863d 3725 213d 0305 a3bd
00000310: f084 4e3d ca95 d6bd a10d c1bd e8d2 ad3d
00000320: 14e3 03bc 6545 2bbd 6b42 39bd 6c98 96bd
00000330: 6cdb beba 7d17 2cbd ab68 21bd bda7 f83b
00000340: 9476 a4bd 6003 7b3c d422 033b 07ea 1d3d
00000350: f959 4a3d 7267 19bd 3df1 6bbd 1d21 16bd
00000360: d685 333d 5755 0f3c af01 b1bd 685f 97bd
00000370: e397 a83c ed05 95bd fb1b 3fbc 421b b8bd
00000380: 5832 c33d ad93 a23d 5e10 5d3c 1086 c83d
00000390: 28b4 57bd 1e03 c9bd 2450 b1bd 1137 76bd
000003a0: 83d7 b33d fd72 4ebd 8684 7d3d 490e 7cbc
000003b0: 88fe 05bc 6e9f 70bc c117 2ebd b967 dcbd
000003c0: f8c5 dd39 119c 093d 60a7 09bd f0d2 913c
000003d0: 10b0 bdbd 1d1f 13bc a99b 4c3d 628c 9dbd
000003e0: 1558 7d3d 5b7b 01bd c023 ab3d 7f3e b73c
000003f0: 9d08 063d 175f cdbd 4c87 0cbd 989d 6dbc

sequential_3/dense_4/MatMul f4 [3, 10]
-0.16084333 0.6762081 0.15761729 -0.44558996 0.4096371 0.5352218 -0.5388299 -0.07944828
0.03479272 -0.0075220466 -0.09513898 0.20427774 -0.4959485 -0.32230407 -0.7204208 -0.5945364
-0.2288299 -0.35211724 0.49092835 -0.49562994 0.4834337 0.0961252 -0.4214686 0.43040544
0.21729387 0.565401 0.51083684 0.21468483 -0.38988635 -0.029977739
00000000: 1db4 24be f91b 2d3f 6d66 213e 5e24 e4be
00000010: f4bb d13e 4c04 093f c2f0 09bf c8b5 a2bd
00000020: d082 0e3d 807b f6bb 3ad8 c2bd 2f2e 513e
00000030: f6ec fdbe 0a05 a5be 7f6d 38bf 8a33 18bf
00000040: 6352 6abe b648 b4be f65a fb3e 35c3 fdbe
00000050: 9f84 f73e 4add c43d bbca d7be 1a5e dc3e
00000060: 4982 5e3e 1fbe 103f 34c6 023f 57d6 5b3e
00000070: 2f9f c7be e093 f5bc
