train/model_quantized.tflite (tflite, 4328 bytes, 4 tensors)

sequential_1/dense_1/MatMul f4 [3, 10]
00000000: 35fd 1e3f dae3 2ebf a8a3 173f 6728 94bd
00000010: 3258 603f 6685 ed3e 8bbe 49bf 7881 123e
00000020: b203 c13d a598 123e 59b5 9d3e 9567 293e
00000030: 7bd4 f9bd 976c 173f ab89 f2be 5167 98be
00000040: d82a ec3e 7e31 033f 2fb2 d6bc 1971 3dbf
00000050: 4b8f 6d3e b55b bd3e 10ec fdbe b2d4 2dbf
00000060: 6afc 44be 300d 243e 618a 05bf 840a 5e3f
00000070: 654e 55bf a17f 973c
0.62105113 -0.68316424 0.59234095 -0.07234269 0.87634575 0.46390837 -0.7880637 0.14307201
0.09424533 0.14316042 0.3080242 0.1654342 -0.121987306 0.5915007 -0.47370657 -0.29766324
0.46126437 0.51247394 -0.026208011 -0.740007 0.23199193 0.3698403 -0.49594164 -0.6790267
-0.19236913 0.16020656 -0.52164274 0.86734796 -0.83322746 0.018493475

sequential_1/dense/BiasAdd/ReadVariableOp f4 [10]
00000000: ecaa 94bc 298d 9b3d 8fbc 5cbd f57d ccbc
00000010: d9b6 99bd 029b 91bd 483a 0a3d 7708 e13d
00000020: 698e 98bd 20d2 bbba
-0.018147908 0.075952835 -0.05389076 -0.024962405 -0.075055785 -0.071096435 0.033746988 0.10987943
-0.074490376 -0.001432959

sequential_1/dense_1/BiasAdd/ReadVariableOp f4 [3]
00000000: 81b8 0abe eb4f b0bd 1f3a 493e
-0.13546945 -0.08608993 0.19651078

sequential_1/dense/MatMul i1 [10, 210] scale=0.0035659596 zero_point=0
00000000: dc30 1a1b e201 dd32 ec2e 251c 1d08 e71f
00000010: db1c 2d13 e8e3 1efa ece4 10f4 0f29 0f1a
00000020: d7e5 05f4 eadc 0803 e810 f70e 0322 0213
00000030: 241a e70e 1900 f107 f3d7 0209 ffd4 22fc
00000040: 2ae8 f51c d71a 1b0f 2717 ee1c 2a02 d418
00000050: d8ec 1701 1412 ecf0 fddd f7f7 e7f6 e725
00000060: 11f5 1423 31e8 162a ede8 f0d8 0b23 d524
00000070: da12 1f27 d1fc 13fa 0b13 d50e f91e 05f1
00000080: e610 daf4 0aef f9fb e3db d21b 070a dd0c
00000090: f400 11d3 1806 e010 2315 d60c 2425 011d
000000a0: 0c15 1525 03ed fce8 e5f6 d6d7 d721 0816
000000b0: e70e e1d1 0cd7 faec 27e1 29fb d217 2efe
000000c0: 0b1b f0f0 1808 fee0 0916 f91d 1528 e6e6
000000d0: f5fa 0f23 fbed dfd2 d9e3 dbe7 ead9 ced0
000000e0: 05f0 d41a fcfb 29fd e80d 12f4 03fe 05d4
000000f0: e013 15fe dcd4 1df9 2bd1 fa20 0630 2b1a
-0.12837455 0.17116606 0.09271495 0.09628091 -0.10697879 0.0035659596 -0.12480859 0.17829798
-0.07131919 0.16403414 0.13194051 0.09984687 0.10341283 0.028527677 -0.08914899 0.11054475
-0.13194051 0.09984687 0.16046819 0.06775323 -0.08558303 -0.10341283 0.10697879 -0.021395758
-0.07131919 -0.09984687 0.057055354 -0.042791516 0.053489394 0.14620435 0.053489394 0.09271495
-0.14620435 -0.09628091 0.017829798 -0.042791516 -0.07845111 -0.12837455 0.028527677 0.010697879
-0.08558303 0.057055354 -0.032093637 0.049923435 0.010697879 0.12124263 0.0071319193 0.06775323
0.12837455 0.09271495 -0.08914899 0.049923435 0.08914899 0.0 -0.053489394 0.024961717
-0.046357475 -0.14620435 0.0071319193 0.032093637 -0.0035659596 -0.15690222 0.12124263 -0.0142638385
0.1497703 -0.08558303 -0.039225556 0.09984687 -0.14620435 0.09271495 0.09628091 0.053489394
0.13907242 0.08201707 -0.06418727 0.09984687 0.1497703 0.0071319193 -0.15690222 0.08558303
-0.14263839 -0.07131919 0.08201707 0.0035659596 0.07131919 0.06418727 -0.07131919 -0.057055354
-0.010697879 -0.12480859 -0.032093637 -0.032093637 -0.08914899 -0.035659596 -0.08914899 0.13194051
0.060621314 -0.039225556 0.07131919 0.12480859 0.17473203 -0.08558303 0.07845111 0.1497703
-0.06775323 -0.08558303 -0.057055354 -0.14263839 0.039225556 0.12480859 -0.15333626 0.12837455
-0.13550647 0.06418727 0.11054475 0.13907242 -0.1676001 -0.0142638385 0.06775323 -0.021395758
0.039225556 0.06775323 -0.15333626 0.049923435 -0.024961717 0.10697879 0.017829798 -0.053489394
-0.09271495 0.057055354 -0.13550647 -0.042791516 0.035659596 -0.060621314 -0.024961717 -0.017829798
-0.10341283 -0.13194051 -0.16403414 0.09628091 0.024961717 0.035659596 -0.12480859 0.042791516
-0.042791516 0.0 0.060621314 -0.16046819 0.08558303 0.021395758 -0.11411071 0.057055354
0.12480859 0.07488515 -0.1497703 0.042791516 0.12837455 0.13194051 0.0035659596 0.10341283
0.042791516 0.07488515 0.07488515 0.13194051 0.010697879 -0.06775323 -0.0142638385 -0.08558303
-0.09628091 -0.035659596 -0.1497703 -0.14620435 -0.14620435 0.11767667 0.028527677 0.07845111
-0.08914899 0.049923435 -0.11054475 -0.1676001 0.042791516 -0.14620435 -0.021395758 -0.07131919
0.13907242 -0.11054475 0.14620435 -0.017829798 -0.16403414 0.08201707 0.16403414 -0.0071319193
0.039225556 0.09628091 -0.057055354 -0.057055354 0.08558303 0.028527677 -0.0071319193 -0.11411071
0.032093637 0.07845111 -0.024961717 0.10341283 0.07488515 0.14263839 -0.09271495 -0.09271495
-0.039225556 -0.021395758 0.053489394 0.12480859 -0.017829798 -0.06775323 -0.11767667 -0.16403414
-0.13907242 -0.10341283 -0.13194051 -0.08914899 -0.07845111 -0.13907242 -0.17829798 -0.17116606
0.017829798 -0.057055354 -0.15690222 0.09271495 -0.0142638385 -0.017829798 0.14620435 -0.010697879
-0.08558303 0.046357475 0.06418727 -0.042791516 0.010697879 -0.0071319193 0.017829798 -0.15690222
-0.11411071 0.06775323 0.07488515 -0.0071319193 -0.12837455 -0.15690222 0.10341283 -0.024961717
0.15333626 -0.1676001 -0.021395758 0.11411071 0.021395758 0.17116606 0.15333626 0.09271495
