train/model.tflite (tflite, 20604 bytes, 8 tensors)

sequential/conv2d/BiasAdd/ReadVariableOp f4 [8]
0	0xc01f67e1	-2.4907153
1	0x3f3210b8	0.6955676
2	0xbfb889a9	-1.441701
3	0x3d49cbc2	0.049266584
4	0xc03c367b	-2.9408252
5	0xc00fa2e3	-2.2443168
6	0xbfccc719	-1.599826
7	0xbfd40ee6	-1.6567047

sequential/conv2d_1/BiasAdd/ReadVariableOp f4 [16]
0	0x3f40adec	0.75265384
1	0xbec5614e	-0.385508
2	0x3ed906a1	0.4238787
3	0x3f3ad71d	0.72984487
4	0xbf7616e0	-0.96128654
5	0x3e034891	0.1282065
6	0xbf3e0996	-0.74233377
7	0xbeadb0a7	-0.33923838
8	0xbd56d3d1	-0.052448098
9	0x3fc3f126	1.5307968
10	0xbf746306	-0.954636
11	0xbf79e351	-0.9761248
12	0x3f812411	1.0089132
13	0xbe254c55	-0.161424
14	0x3ef3db87	0.47628424
15	0x3c033605	0.008008485

sequential/conv2d/Conv2D f4 [8, 4, 3, 1]
0	0xbde6d00e	-0.11270152
1	0x3e1057e0	0.14096022
2	0x3e4b31bb	0.1984319
3	0x3df5092c	0.1196464
4	0xbd6201b9	-0.055177424
5	0x3db8ef9a	0.09030075
6	0xbd5c938c	-0.05385165
7	0xbd4489b8	-0.0479829
8	0xbd0df011	-0.034652773
9	0x3d74c18c	0.059754893
10	0xbc752a50	-0.014963701
11	0xbd925ded	-0.07146821
12	0xbdbcecc0	-0.09224844
13	0xbdfa50fb	-0.12222477
14	0xbf02b952	-0.51064026
15	0x3e9234bb	0.28555855
16	0xbe4a13ce	-0.19734117
17	0xbe45c517	-0.19313465
18	0xbe8b4003	-0.27197275
19	0x3e98a3a5	0.2981235
20	0x3e141d90	0.14464402
21	0xbe202743	-0.15639977
22	0xbe24794c	-0.16061896
23	0xbe90c26d	-0.28273335
24	0x3d58fd73	0.052976083
25	0xbde0175a	-0.10941954
26	0xbd92c5dd	-0.07166646
27	0x3e2e96d1	0.1704972
28	0x3d38e351	0.04513866
29	0xbd42952e	-0.04750555
30	0x3e3d12ac	0.18464154
31	0xbe0e850b	-0.1391794
32	0x3cd4b290	0.025964051
33	0x3e4d5330	0.20051265
34	0x3e05f0ae	0.13080093
35	0x3ccbeaf7	0.024892313
36	0x3d6c217a	0.057649113
37	0x3e50d949	0.20395388
38	0xbddfee48	-0.109341204
39	0x3e509fc7	0.2037345
40	0xbda6c45a	-0.0814292
41	0xbe2c2e37	-0.16814505
42	0x3e083646	0.13301954
43	0xbe111403	-0.1416779
44	0xbe354f00	-0.17705917
45	0x3da3d611	0.07999814
46	0xbdc7348c	-0.097268194
47	0xbe8f240b	-0.27957186
48	0xbd8536cd	-0.06504593
49	0xbd36ba8b	-0.044611495
50	0x3ea2ac7a	0.31772214
51	0xb8e784b4	-0.00011039656
52	0xbdd0a018	-0.101867855
53	0x3e87cf25	0.26525226
54	0xbbbce72e	-0.0057648635
55	0xbd3c0f3e	-0.045912974
56	0xbe22a088	-0.1588155
57	0xbe3afdd5	-0.18260892
58	0x3c46566b	0.012105565
59	0xbecea34e	-0.40358967
60	0x3e1854ec	0.14876145
61	0xbdf5a83d	-0.119949795
62	0xbd3d6f08	-0.046248466
63	0xbd1c7064	-0.03819312
64	0xbdc93738	-0.09824985
65	0x3dc6a417	0.096992664
66	0x3c326bc3	0.01088995
67	0xbdd15ab5	-0.10222379
68	0xbdb6c9de	-0.08925222
69	0x3daac433	0.08338203
70	0xbe5143c4	-0.20436007
71	0xbd3ea3bb	-0.046542864
72	0xbe017b04	-0.12644583
73	0xbe005a6b	-0.12534492
74	0xbdf9cdde	-0.12197469
75	0x3ca0d0b2	0.019630764
76	0xbd98ac24	-0.07454708
77	0x3dfbe844	0.123001605
78	0x3dea9c33	0.11455574
79	0xbccadadd	-0.024762565
80	0xbdd8753f	-0.10569238
81	0x3c89bd69	0.01681395
82	0xbe286c5f	-0.1644759
83	0x3baf1b34	0.005343819
84	0xbcf9046b	-0.030397614
85	0xbc9ed0bc	-0.019386642
86	0xbe78ef65	-0.24310072
87	0x3d0144ca	0.031559743
88	0xbb4c5a9a	-0.0031181932
89	0x3d7ed05f	0.062210437
90	0x3d79e595	0.061009962
91	0x3ddb5b25	0.10710744
92	0x3dfd9786	0.123824164
93	0x3d4d6ecb	0.05015449
94	0x3c0fc367	0.008774615
95	0x3e639a0f	0.22226737

sequential/conv2d_1/Conv2D f4 [16, 4, 1, 8]
0	0xbef55e96	-0.47923726
1	0xbeb44e9f	-0.35216233
2	0xbe9d8b65	-0.30770412
3	0xbf0da403	-0.5532839
4	0xbee0d352	-0.43911225
5	0xbece2a62	-0.4026671
6	0xbf02bead	-0.510722
7	0xbe0e7183	-0.13910489
8	0xbe2a57d1	-0.16635062
9	0x3ee35b1a	0.44405442
10	0xbd59af93	-0.053145956
11	0x3bad4966	0.005288291
12	0x3da429c6	0.0801578
13	0xbe0e58eb	-0.13901107
14	0xbe8826da	-0.2659214
15	0x3ee13bae	0.43990844
16	0xbd161846	-0.036644243
17	0x3dfba58f	0.12287437
18	0x3d42398f	0.047418173
19	0x3e00f83b	0.12594692
20	0xbdf18a2b	-0.117939316
21	0xbe2e3db4	-0.17015725
22	0xbdd8d807	-0.10588079
23	0x3e09794c	0.13425177
24	0x3e1cb898	0.15304792
25	0x3d09e4ab	0.03366534
26	0x3d9e49ae	0.07728897
27	0x3d9a8ecf	0.0754677
28	0x3df1869c	0.11793253
29	0xbcf27049	-0.029594557
30	0x3c54fe99	0.013000154
31	0xbc25b413	-0.010113734
32	0x3c38b0cd	0.011272621
33	0xbdfc893f	-0.12330865
34	0x3c8e1bcf	0.017347245
35	0xbc84b450	-0.016199261
36	0x3b13a864	0.0022530789
37	0xbd3170a3	-0.04332031
38	0x3e45e145	0.19324215
39	0xbe0e290b	-0.13882844
40	0xbde173a2	-0.11008383
41	0xbdb1b3a2	-0.0867684
42	0xbd59eafd	-0.053202618
43	0x3af779c0	0.0018880889
44	0x3ecd5784	0.40105832
45	0x3db45080	0.08804417
46	0x3e80ce16	0.2515723
47	0xbe54722f	-0.20746683
48	0xbe83e874	-0.25763285
49	0xbd285d17	-0.041104402
50	0xbd1ebaa8	-0.038752228
51	0xbe31ec36	-0.17375264
52	0xbee3c24d	-0.44484177
53	0xbdceaaa2	-0.100911394
54	0xbe16065d	-0.14650865
55	0x3e067382	0.1313
56	0x3c12d677	0.008962265
57	0xbeee2d60	-0.46518993
58	0x3d3fc6fa	0.04682062
59	0x3cac94f2	0.021067116
60	0x3e302e15	0.17205079
61	0xbe6ca703	-0.23110585
62	0xbea14ff0	-0.315063
63	0x3d611b7a	0.054957844
64	0xbd3bcf98	-0.045852274
65	0x3cf08a28	0.029362753
66	0xbe467ac3	-0.19382767
67	0x3d1d86a5	0.038458485
68	0xbcd7295f	-0.026264844
69	0xbe6792e5	-0.2261463
70	0xbe805518	-0.2506492
71	0x3c205422	0.009785684
72	0x3e151028	0.14556944
73	0x3e637b89	0.22215094
74	0xbe94f9c3	-0.29096803
75	0xbe4caede	-0.19988582
76	0xbe09ac70	-0.13444686
77	0xbdbae0bc	-0.09124896
78	0x3d7e7fd9	0.062133644
79	0x3eef818d	0.46778527
80	0xbda874d0	-0.08225405
81	0x3d523498	0.05131969
82	0xbebc5d5e	-0.36789984
83	0xbe5ff17d	-0.21869464
84	0xbde0d83e	-0.10978745
85	0x3dd920c3	0.10601952
86	0xbc2cc798	-0.010545634
87	0xbd5d9ec3	-0.054106485
88	0x3e3c79ac	0.18405789
89	0x3e3cdf2c	0.18444508
90	0xbf131a25	-0.5746177
91	0xbe39574b	-0.18099706
92	0xbd94f6ba	-0.07273622
93	0x3c933f50	0.017974526
94	0x3d98079f	0.074233286
95	0xbdff1d61	-0.124567755
96	0xbdce1403	-0.10062411
97	0x3ecb6d6b	0.39731917
98	0xbd2aa32f	-0.04165953
99	0x3dffe67e	0.12495135
100	0x3d81b463	0.06333234
101	0x3cb642fa	0.022248734
102	0x3d899016	0.06716935
103	0xbd098e7e	-0.033583157
104	0x3d7b6b2b	0.0613815
105	0x3ec02243	0.3752614
106	0xbba27d25	-0.004958766
107	0x3e1f8588	0.15578282
108	0xbca2418f	-0.019806651
109	0xbe7ae5de	-0.2450175
110	0xbe5d7873	-0.21627979
111	0x3e29d17a	0.16583815
112	0xbc978e6a	-0.018500526
113	0xbf29fc8e	-0.6640099
114	0x3d8632d7	0.06552666
115	0xbce5bbce	-0.028043654
116	0xbe1a8115	-0.15088303
117	0xbf214305	-0.6299289
118	0xbf5c80b4	-0.86133885
119	0xbd6c0a88	-0.05762723
120	0xbd85a3c5	-0.06525377
121	0xbf97b897	-1.1853207
122	0xbc3d2465	-0.011544322
123	0xbd402608	-0.04691127
124	0xbce700db	-0.02819865
125	0xbf497be8	-0.7870469
126	0xbf79994e	-0.9749955
127	0xbd6b11fc	-0.057390198
128	0xbec1f405	-0.37881485
129	0x3dcd93c4	0.1003795
130	0xbd33eb1e	-0.043925397
131	0xbea72ee7	-0.3265297
132	0xbccc55d6	-0.024943274
133	0x3eeee754	0.46660864
134	0x3e4ef03a	0.20208827
135	0xbe929696	-0.28630513
136	0xbe47c172	-0.19507387
137	0xbd7a280b	-0.061073344
138	0xbe140140	-0.14453602
139	0xbe506b1b	-0.20353357
140	0x3e272385	0.16322143
141	0x3bb48d02	0.0055099735
142	0x3e37ed6d	0.17961664
143	0xbe958cf6	-0.29209107
144	0xbe86fa0c	-0.26362646
145	0x3dcd83a2	0.100348726
146	0xbdb3ceb2	-0.087796584
147	0xbc2cd467	-0.010548688
148	0xbde0ba9e	-0.109730944
149	0xbe2259bd	-0.15854545
150	0xbe67e87d	-0.22647281
151	0x3b7d0e5e	0.00386133
152	0xbc812173	-0.01576302
153	0xbe4d76f2	-0.20064905
154	0x3e819c88	0.25314736
155	0x3d8be0d2	0.068299904
156	0xbf22942e	-0.63507354
157	0xbe6e24a4	-0.23256165
158	0xbea298ab	-0.317571
159	0x3eb2d53e	0.34928316
160	0xbd9df6b4	-0.077130705
161	0xbdf56ba6	-0.11983423
162	0x3bdc1f60	0.0067176074
163	0xbe18baf4	-0.14915067
164	0xbdadebfd	-0.08492277
165	0xbed47df2	-0.4150234
166	0xbee6a498	-0.4504745
167	0x3e00b2bc	0.12568182
168	0x3d9098c9	0.070603915
169	0x3ea36b20	0.31917667
170	0x3dfd27d6	0.12361114
171	0xbe397626	-0.18111476
172	0xbe2d73d8	-0.16938722
173	0xbf19a066	-0.60010374
174	0xbf321c12	-0.6957408
175	0x3eb72c98	0.3577621
176	0x3cfc19ad	0.030773962
177	0x3e27dc87	0.16392718
178	0xbe0c80cf	-0.13721012
179	0xbdcb0d4c	-0.099146456
180	0x3de26388	0.1105414
181	0xbe7c98c3	-0.24667649
182	0xbe733b5f	-0.23753117
183	0xbe051e57	-0.12999855
184	0xbd163293	-0.036669325
185	0x3da43d92	0.08019556
186	0xbd1a8d50	-0.037732422
187	0x3d8059dc	0.06267139
188	0x3dd858cc	0.10563812
189	0x3ecc20e9	0.39868858
190	0x3ed31be6	0.41232222
191	0xbe0cd2e2	-0.1375232
192	0x3e01d135	0.12677462
193	0xbd9a1ac3	-0.07524636
194	0x3ca28250	0.019837528
195	0x3ee23f26	0.44188803
196	0x3dd219e2	0.10258843
197	0xbd2e7ac5	-0.04259755
198	0xbdf31bc7	-0.118705325
199	0x3e482ef3	0.1954916
200	0x3de431e4	0.111423284
201	0xbd1b3fc1	-0.037902597
202	0xbca112af	-0.01966223
203	0x3e312fd0	0.17303395
204	0x3e7c9892	0.24667576
205	0xbe3a2ca5	-0.18181093
206	0xbe73c986	-0.23807344
207	0xbe02bf1b	-0.12768213
208	0xbcd41e9e	-0.025893506
209	0xbe3cb65c	-0.1842894
210	0xbe3c7fc7	-0.18408118
211	0xbe0fa372	-0.14027193
212	0x3e5023aa	0.20326105
213	0xbd8dc7ef	-0.069229
214	0xbe5e1c99	-0.21690597
215	0xbd9e0c39	-0.07717175
216	0xbdd89ccd	-0.105767824
217	0x3d112c47	0.035442617
218	0xbe87536d	-0.26430836
219	0xbe7168d4	-0.23575145
220	0xbdc60b75	-0.09670154
221	0xbc9bdbf0	-0.019025773
222	0xbd4d695e	-0.050149314
223	0x3b47b4e4	0.003047281
224	0xbe4cfd2d	-0.20018454
225	0x3ebf3a05	0.37348953
226	0xbebfa338	-0.37429214
227	0x3cea2d7b	0.02858614
228	0xbd2a4adb	-0.041575294
229	0xbd248299	-0.04016361
230	0x3e094be6	0.13407859
231	0xbe23e132	-0.16003874
232	0xbe2677f1	-0.16256692
233	0x3de62675	0.11237804
234	0xbe4e1074	-0.20123464
235	0x3da2d2e0	0.079503775
236	0xbda45ac8	-0.08025128
237	0x3de86ef6	0.11349289
238	0xb989d0c7	-0.00026286228
239	0xbda0a6b9	-0.078443
240	0x3ce7565f	0.028239427
241	0x3eacc48e	0.3374371
242	0xbe92a931	-0.28644708
243	0x3de76039	0.1129765
244	0x3d6b4eaa	0.057448067
245	0x3d6dced6	0.058058582
246	0xbc50558a	-0.012715707
247	0xbd6ad3cf	-0.057330903
248	0xbd557267	-0.052111056
249	0x3cc70edf	0.024299083
250	0xbe888ace	-0.266684
251	0x3d255e2f	0.040373024
252	0x3de57c95	0.11205403
253	0xbd424b20	-0.047434926
254	0xbc99232c	-0.01869353
255	0xbe4ea562	-0.20180276

sequential/dense/BiasAdd/ReadVariableOp f4 [16]
0	0x3f41e636	0.757419
1	0xbebd11c7	-0.36927626
2	0xbea26b17	-0.31722328
3	0xbe985ffa	-0.29760724
4	0xbeb60002	-0.3554688
5	0x4006db5b	2.1071384
6	0xbebed585	-0.37272277
7	0x3d04a1e6	0.03238096
8	0xbe9dfdf2	-0.30857807
9	0xbe257c95	-0.16160806
10	0x3fad4b4f	1.3538607
11	0x3e4cc809	0.19998182
12	0xbe6ce0fc	-0.231327
13	0x401164c3	2.271775
14	0x3d3aa877	0.045570817
15	0x3cd6d8a7	0.026226355

sequential/dense_1/BiasAdd/ReadVariableOp f4 [4]
0	0xbff7b125	-1.9350935
1	0x402411f0	2.5635948
2	0xc023f90b	-2.5620754
3	0xbf84a702	-1.0363467

sequential/dense/MatMul f4 [16, 224]
0	0x3df890ae	0.121369705
1	0xbe057e0c	-0.13036364
2	0xbd618524	-0.055058613
3	0x3ebd2c5d	0.3694791
4	0x3b8eb499	0.004355025
5	0x3c09fe50	0.008422449
6	0xbe3f2822	-0.18667653
7	0x3db79fc8	0.08966023
8	0xbd034dae	-0.032056503
9	0x3ec4a74c	0.38408887
10	0xbcfc9a50	-0.0308353
11	0xbc5cbbdc	-0.013472524
12	0x3e2b504a	0.16729847
13	0x3f00e3b2	0.50347435
14	0x3de9d2e3	0.114171766
15	0xbea160d2	-0.3151918
16	0x3d3e8556	0.046513878
17	0xbdcfa17a	-0.10138221
18	0x3e48c82f	0.19607614
19	0xbdf41ec6	-0.11919932
20	0x3c55a821	0.013040573
21	0x3e29299a	0.16519776
22	0xbe35ba82	-0.17746928
23	0xbdcc4d3f	-0.09975671
24	0xbda02df2	-0.078212634
25	0xbdb96aac	-0.09053549
26	0xbe39e2a3	-0.18152861
27	0xbe171dce	-0.14757463
28	0xba357a63	-0.0006922839
29	0x3bda4a6a	0.006661703
30	0x3ccaf35c	0.024774246
31	0xbe92032e	-0.2851805
32	0xbd9e18d1	-0.07719577
33	0xbe195f04	-0.14977652
34	0x3d55d6f3	0.052206945
35	0xbe86cf1d	-0.2632989
36	0x3c97c7b3	0.018527841
37	0x3e102b28	0.14078963
38	0x3d785b28	0.06063381
39	0xbd463152	-0.04838688
40	0xbc2e5613	-0.010640639
41	0x3d793ba9	0.060847912
42	0xbe62f8ce	-0.22165224
43	0xbdeadee5	-0.11468295
44	0xbbda3c3e	-0.0066600135
45	0x3e577ccb	0.21043698
46	0xbdef6c24	-0.11690548
47	0xbe46f7ed	-0.19430514
48	0x3dffd5fd	0.12491987
49	0x3ea3f1ff	0.32020566
50	0x3e158649	0.14602007
51	0x3d24cd77	0.04023501
52	0x3e98f4f1	0.29874375
53	0x3e278909	0.16360869
54	0x3c8c2844	0.017109044
55	0xbe13e818	-0.14444005
56	0xbcdac33b	-0.026704421
57	0xbb3f6b22	-0.0029208143
58	0xbe92f4c1	-0.28702357
59	0xbcc0eeef	-0.023551432
60	0xbd368c61	-0.04456747
61	0x3e5f6ed8	0.21819627
62	0xbdd2e6fb	-0.10297962
63	0xbe098363	-0.13429026
64	0xbd67d853	-0.056602787
65	0x3ec3adf9	0.38218668
66	0xbd6ddd1f	-0.058072206
67	0x3da5850a	0.08082016
68	0x3e4c529a	0.19953385
69	0x3d3959c0	0.045251608
70	0xbce4355a	-0.027857471
71	0x3ba1ad24	0.00493397
72	0xbcc5ade2	-0.024130765
73	0x3e28c19e	0.16480109
74	0xbe345450	-0.17610288
75	0xbe481ea3	-0.19542937
76	0xbc261cf6	-0.010138741
77	0x3e412367	0.18861161
78	0xbe578bf9	-0.21049489
79	0xbd474adb	-0.048655372
80	0xbdfb0567	-0.1225689
81	0x3e0f60d4	0.14001781
82	0xbe3c8b9a	-0.18412629
83	0x3ddd839f	0.1081612
84	0x3dbb2f38	0.09139866
85	0x3c048056	0.008087238
86	0x3de269e7	0.110553555
87	0xbe174bc8	-0.14775002
88	0x3ba0fa1e	0.004912629
89	0xbcf33413	-0.029687917
90	0x3e05c253	0.1306241
91	0xbde8d038	-0.113678396
92	0xbe35b15d	-0.1774344
93	0x3dfeaa1b	0.12434789
94	0x3c7f6abf	0.015589415
95	0xbcd859cf	-0.026410012
96	0xbcb9d843	-0.02268613
97	0x3e2a5d72	0.16637209
98	0xbe05f36b	-0.13081138
99	0x3d3e064d	0.046392728
100	0x3e1e9a2e	0.15488502
101	0x3e3ed0c6	0.18634328
102	0xbda059b6	-0.07829611
103	0xbdcac545	-0.099009074
104	0x3df9536b	0.12174114
105	0x3dde18e9	0.10844595
106	0xbdc3cf1a	-0.09560986
107	0xbdb0c43a	-0.08631177
108	0xbd399c42	-0.045315035
109	0x3dd2b6c0	0.10288763
110	0x3d8957ef	0.06706225
111	0xbe1527cd	-0.14565964
112	0xbdd7094d	-0.10499821
113	0x3e1a5c7f	0.15074347
114	0xbe6caa94	-0.23111945
115	0xbcc1a41e	-0.023637827
116	0x3e5ef076	0.21771416
117	0x3d8e7475	0.06955806
118	0x3d0ed419	0.03487024
119	0xbd8c2efc	-0.06844899
120	0xbe07762b	-0.13228671
121	0x3e1ff9df	0.15622662
122	0x3d86744a	0.06565149
123	0xbe5a7841	-0.21334936
124	0x3c95733a	0.01824342
125	0x3e55fb84	0.20896727
126	0xbd88732e	-0.06662594
127	0x3ca2e490	0.019884378
128	0xbe467ebf	-0.19384287
129	0x3e256ccb	0.16154782
130	0x3e00c155	0.1257375
131	0xbe1dca9a	-0.15409318
132	0x3d71410b	0.05889992
133	0x3d933ac4	0.07188943
134	0x3dde8499	0.10865135
135	0xbd2e6573	-0.04257722
136	0xbd0ec9cb	-0.034860414
137	0x3da24b59	0.07924528
138	0x3dc1c847	0.09462028
139	0x3d80daf0	0.06291759
140	0xbdef7ab2	-0.11693324
141	0x3e2c4ae9	0.16825451
142	0xbca48104	-0.02008105
143	0x3d6d8045	0.057983655
144	0xbe0456c4	-0.12923723
145	0x3e8f776c	0.280208
146	0xbdb36fc4	-0.08761552
147	0x3d4f53a8	0.05061689
148	0x3d359249	0.04432896
149	0x3cf1d297	0.029519362
150	0xbe13c3d4	-0.14430171
151	0xbdced7a8	-0.10099727
152	0xbe63bb6d	-0.22239466
153	0x3eb33fca	0.35009605
154	0x3dd074a1	0.10178495
155	0xbd295e94	-0.041349962
156	0x3ccc77d6	0.024959486
157	0x3e40f2c5	0.18842609
158	0xbd29595c	-0.041344985
159	0xbd794279	-0.06085441
160	0xbdbe7bf0	-0.09300983
161	0x3e1f91d3	0.15582971
162	0x3e5ae94f	0.21378063
163	0xbccf415f	-0.025299726
164	0x3e3d9183	0.1851254
165	0xbcb2604d	-0.021774435
166	0xbde8f138	-0.11374134
167	0x3e0593e9	0.13044704
168	0xbe3095ea	-0.17244688
169	0x3e3444cb	0.17604367
170	0x3b97ae28	0.0046289153
171	0xbc82c389	-0.015962379
172	0x3cd325df	0.025774894
173	0x3db60c77	0.08889096
174	0x3d3436df	0.04399764
175	0xbd217e0e	-0.039426856
176	0xbd924462	-0.07141949
177	0x3d8bbd2c	0.06823191
178	0x3e6a2746	0.22866544
179	0x3c1c5634	0.009542037
180	0x3dc92647	0.09821754
181	0x3da7b7ab	0.08189329
182	0xbbbd3e0c	-0.005775219
183	0x3db992d4	0.09061208
184	0xbdc6da0b	-0.09709557
185	0x3e4e0f34	0.20122987
186	0x3e4fa1dc	0.20276588
187	0xbb25fd14	-0.0025327848
188	0x3e750631	0.23928143
189	0x3e149749	0.14510836
190	0xbc14c05f	-0.009079068
191	0x3d6e371e	0.058158033
192	0xbdc1c99d	-0.09462283
193	0x3d2b3840	0.04180169
194	0xbd09129a	-0.033465005
195	0xbd42c2f2	-0.047549196
196	0x3d8168b1	0.063187964
197	0x3d5a376e	0.053275518
198	0xbd8b5c31	-0.068046935
199	0x3d8e5fca	0.06951864
200	0xbebd7ff7	-0.37011692
201	0x3e2168cf	0.15762638
202	0x3e217dd6	0.15770659
203	0xbcb886f1	-0.022525283
204	0x3e3123d9	0.17298831
205	0x3e9a1d85	0.30100647
206	0x3d0cee89	0.034407172
207	0x3d2b5ce3	0.04183663
208	0xbdb0b230	-0.086277366
209	0x3d17c5d9	0.037053917
210	0x3d69fb96	0.057124697
211	0x3e5512bc	0.20807928
212	0xbe4da81b	-0.20083658
213	0x3e77a14b	0.24182622
214	0x3e297228	0.16547453
215	0xbde6fe6e	-0.11278997
216	0xbef13b22	-0.47115427
217	0x3e4025c7	0.18764411
218	0xbc20b1c0	-0.009808004
219	0x3cb60f27	0.022224022
220	0x3e6173c2	0.22016814
221	0x3d3e752a	0.046498455
222	0xbc9f7f60	-0.019469917
223	0x3dec6f72	0.11544694
224	0x3d2f3fb1	0.04278535
225	0xbe96cec0	-0.29454613
226	0xbe6a3437	-0.22871481
227	0xbeae4cd8	-0.34043002
228	0xbe6c79f8	-0.23093402
229	0xbe053b09	-0.13010801
230	0x3d6a23f5	0.057163198
231	0xbe6ef607	-0.2333604
232	0xbd8a6a81	-0.06758595
233	0xbdc8423c	-0.09778258
234	0x3d98c37a	0.07459159
235	0xbe34b3cd	-0.17646714
236	0xbe2405f4	-0.16017896
237	0xbd9aa898	-0.07551688
238	0xbe7b4063	-0.2453628
239	0xbdb999d4	-0.090625435
240	0xbe56ae06	-0.20964822
241	0xbeac5e09	-0.33665493
242	0xbe9237c7	-0.2855818
243	0xbe6b85c1	-0.23000242
244	0xbe4f561e	-0.20247695
245	0xbe24f54a	-0.16109195
246	0xbe814c93	-0.25253734
247	0xbe280baf	-0.16410707
248	0x3b1bd0a9	0.0023775494
249	0xbe214d72	-0.157522
250	0xbdc73732	-0.097273245
251	0xbe909a97	-0.28242943
252	0x3e22aa62	0.15885308
253	0xbec45ae5	-0.38350597
254	0xbeea7488	-0.4579203
255	0xbd26a309	-0.040682826

sequential/dense_1/MatMul f4 [4, 16]
0	0xbe8dcf68	-0.276973
1	0x3e128bc3	0.14311127
2	0xbe328250	-0.17432523
3	0x3e9fd4b2	0.3121696
4	0x3e9ad46d	0.30240193
5	0x3c7a7daa	0.01528875
6	0x3e12c2f0	0.14332175
7	0xbe6965c0	-0.22792721
8	0xbe30053d	-0.17189498
9	0x3def7a3d	0.11693237
10	0x3d115bec	0.035488054
11	0x3ed96a40	0.42463875
12	0xbe22f22a	-0.15912691
13	0xbe29e8e7	-0.16592751
14	0xbe91cdfd	-0.2847747
15	0x3ea7c58c	0.32767904
16	0xbeafe5e2	-0.34355074
17	0x3cfb02c3	0.030640965
18	0xbe82c3a7	-0.25539896
19	0x3eca8bb4	0.3955971
20	0x3e5c2cee	0.21501514
21	0xbcf2480e	-0.029575374
22	0xbe0eae8f	-0.13933776
23	0xbe5690aa	-0.20953622
24	0xbec94b5e	-0.39315313
25	0x3d8a2448	0.06745201
26	0x3cc92f97	0.024558825
27	0x3ec6ede6	0.38853377
28	0xbe5cf929	-0.21579422
29	0xbe52d49d	-0.20588918
30	0xbe8be5a8	-0.2732365
31	0x3ea37bbf	0.31930348
32	0xbea2e86d	-0.31817952
33	0x3c367d2c	0.011138242
34	0xbeb100f1	-0.3457103
35	0xbe032e9d	-0.1281075
36	0x3e7ea59c	0.24867862
37	0x3d3d998c	0.04628901
38	0x3e13a0c8	0.14416802
39	0xbe0f031d	-0.13966031
40	0xbf010149	-0.50392586
41	0x3e0fcd22	0.14043096
42	0x3dc3f167	0.09567528
43	0x3ee28408	0.44241357
44	0xbe4d8d64	-0.20073467
45	0xbe322dc6	-0.17400274
46	0xbe55af21	-0.20867588
47	0x3eb4fd99	0.3534973
48	0xbe8cd8a5	-0.27509037
49	0x3d3b46f4	0.045721963
50	0xbe845733	-0.25847778
51	0xbd2ec663	-0.042669665
52	0x3e8c045a	0.2734707
53	0x3dd5b6f8	0.10435289
54	0x3e3f2d1d	0.18669553
55	0xbe51ec04	-0.20500189
56	0xbe8edaaa	-0.27901202
57	0x3d9fa5da	0.077953056
58	0x3db9419b	0.090457164
59	0x3ecf5b31	0.4049926
60	0xbe48a449	-0.1959392
61	0xbe142307	-0.14466487
62	0xbe92f197	-0.28699943
63	0x3ebe3a01	0.37153628
