train/model.tflite (tflite, 10556 bytes, 4 tensors)

sequential_1/dense/BiasAdd/ReadVariableOp f4 [10]
00000000: ecaa 94bc 298d 9b3d 8fbc 5cbd f57d ccbc
00000010: d9b6 99bd 029b 91bd 483a 0a3d 7708 e13d
00000020: 698e 98bd 20d2 bbba
-0.018147908 0.075952835 -0.05389076 -0.024962405 -0.075055785 -0.071096435 0.033746988 0.10987943
-0.074490376 -0.001432959

sequential_1/dense_1/BiasAdd/ReadVariableOp f4 [3]
00000000: 81b8 0abe eb4f b0bd 1f3a 493e
-0.13546945 -0.08608993 0.19651078

sequential_1/dense/MatMul f4 [10, 210]
00000000: 77a3 03be 4a7d 2e3e 63a4 c03d dc97 c83d
00000010: 4abd dabd ceab a73b f5c2 00be 999d 363e
00000020: a702 91bd e192 263e 8d54 073e fa7c ca3d
00000030: 6a08 d63d b048 e43c 0d3b b5bd 3692 e03d
00000040: 527e 08be 6ed5 ca3d cdd9 233e c671 873d
00000050: bb7a b1bd b50b d1bd b6fc dd3d 363e bcbc
00000060: 33e3 90bd 28ca cdbd 2a72 6c3d 06c6 28bd
00000070: e945 5f3d 91eb 143e 3137 583d 5bca be3d
00000080: 2e39 14be f6d4 c3bd d85f 8d3c 1d25 33bd
00000090: d025 9dbd 7f77 04be 0854 eb3c 2674 4b3c
000000a0: 6597 adbd 5ca5 673d 2d5b 06bd cc94 453d
000000b0: 0f7a 483c e09c f63d 241b bc3b e916 8c3d
000000c0: 5ce9 013e 5327 bb3d eb88 b9bd 106a 493d
000000d0: 43ab b63d dd76 99b9 4e58 61bd b59f c33c
000000e0: 8ff6 37bd 693f 16be 18c4 b93b 4846 043d
000000f0: 5818 f7ba 2d88 20be 674c f93d ecb6 6fbc
00000100: a62b 183e c89e b2bd 9d60 26bd 6ac5 cd3d
00000110: 15c5 15be 9996 bf3d 15e6 c33d 4474 613d
00000120: ad0a 0e3e 1474 a83d f7b7 84bd 68cf cc3d
00000130: 5179 193e abb0 083c 7b1c 20be d467 b23d
00000140: 545d 12be 3bf9 91bd 7d6e a73d 7a67 493b
00000150: b698 933d 59da 853d 9c55 8fbd d9db 70bd
00000160: 099a 3cbc a12b ffbd bdde 05bd 2c56 01bd
00000170: 8266 b3bd f563 13bd 5be7 b3bd 237b 053e
00000180: 862d 723d 502e 25bd aaa3 8e3d c998 fd3d
00000190: 1f80 333e 54a4 b0bd 807d a23d b35f 1a3e
000001a0: 1569 8bbd 2d2e afbd 9f80 66bd e1c9 11be
000001b0: 4cb0 243d 010e 003e 4518 1dbe 5d2d 023e
000001c0: 447c 0bbe 8154 803d 2f36 e43d 83ac 0c3e
000001d0: 3e7d 2cbe f8dd 5cbc afce 883d 1038 bcbc
000001e0: 8f46 263d f85e 893d 897e 1bbe 21f7 4c3d
000001f0: 523f bebc 4422 da3d fea2 883c 736c 5fbd
00000200: a68d babd 1447 6b3d dcd5 0bbe 254c 2bbd
00000210: 516f 113d 12d7 77bd c3a5 d8bc 3365 96bc
00000220: 92fa d6bd b310 08be aa0f 27be 536c c43d
00000230: 908a c03c 32e2 0c3d d8c9 febd a49a 2b3d
00000240: 2c60 30bd 08eb c3ba 9273 773d c24a 24be
00000250: 67b7 b03d c17f af3c 9176 ebbd c8e6 703d
00000260: 0e30 ff3d c74a 993d fa85 18be d6c9 303d
00000270: 76ce 013e 1f28 083e daab 0c3b 9501 d23d
00000280: 3b01 333d 73d4 963d a6b1 9a3d e89f 053e
00000290: 0f6d 1a3c 0669 88bd 2577 5ebc e434 b2bd
000002a0: d357 c3bd 4b91 0dbd 3232 18be 9d77 17be
000002b0: 114f 15be b900 f33d 78a6 dc3c 0a59 a13d
000002c0: 7e9f b5bd e685 4b3d 869e e0bd cb5d 2dbe
000002d0: 9b72 2a3d 2b11 14be 999d a1bc 5e57 94bd
000002e0: 3d12 0e3e 3ec5 debd 0185 153e e1ce 8ebc
000002f0: 8349 27be 511d a73d 34cc 273e c696 f7bb
00000300: ff10 203d 0133 c53d e598 65bd e8b3 63bd
00000310: 42ce b13d 021c ef3c a4f1 ffbb 08f7 eabd
00000320: 4912 fb3c 2f25 a03d 551e d2bc ecfa d13d
00000330: 3b31 973d 3212 113e 050c bdbd 11b3 bdbd
00000340: db06 1ebd 37e2 abbc cc6f 583d d27a 003e
00000350: 1ac5 98bc 7b05 8ebd d34a f4bd 65cc 28be
00000360: b0c7 0cbe 11d0 d0bd da1c 08be 4c8d b6bd
00000370: 7eb2 a0bd bca9 0cbe 28b8 35be c6ca 2fbe
00000380: e28a 913c dd90 70bd b7da 20be 7402 bb3d
00000390: 4a18 66bc 2cd2 89bc 5736 143e 74e5 40bc
000003a0: 5e5d afbd 9ba1 423d f5e8 813d 3716 2dbd
000003b0: bc1a 4c3c 873e b7bb af92 893c 019a 20be
000003c0: b0ba e8bd 5c43 883d 9e05 9b3d b492 bfbb
000003d0: 76c8 04be 28d0 1fbe c55d d53d 12a8 d4bc
000003e0: a326 1d3e 393c 2abe d86e b2bc 9c88 e83d
000003f0: 5388 a53c ad19 303e 4027 1e3e e05c be3d
-0.12855326 0.17039981 0.09406354 0.0979459 -0.10680635 0.0051169163 -0.1257437 0.17833556
-0.07080584 0.16266967 0.13215847 0.09887119 0.104508236 0.027866691 -0.08849154 0.109653875
-0.13329437 0.0990399 0.16001053 0.066134974 -0.08665987 -0.10207311 0.108392164 -0.022978883
-0.07074585 -0.10048324 0.057726063 -0.041204475 0.05451003 0.14542986 0.05278701 0.0931594
-0.14474937 -0.095621035 0.017257616 -0.043736566 -0.07673228 -0.12936209 0.028726593 0.012417829
-0.08476142 0.056554183 -0.032801796 0.048237607 0.012236132 0.1204164 0.00574054 0.06840307
0.12686676 0.0913836 -0.09059318 0.049173415 0.08919384 -0.00029270994 -0.055015855 0.023879865
-0.04491287 -0.14672627 0.005669128 0.032293588 -0.001885186 -0.15676947 0.12172776 -0.014631014
0.148604 -0.08721691 -0.04061948 0.10047419 -0.14625962 0.09354896 0.09565369 0.05504252
0.1387126 0.08225265 -0.06480401 0.10000497 0.14987685 0.008342902 -0.15635864 0.0871121
-0.14293414 -0.07127615 0.08175371 0.0030731843 0.07206862 0.06535787 -0.069987506 -0.058803413
-0.011511334 -0.124594934 -0.032683123 -0.03157632 -0.08759786 -0.035984 -0.08784362 0.13035254
0.059125446 -0.04032737 0.0696481 0.12382657 0.17529343 -0.08625093 0.079340935 0.15075569
-0.06807152 -0.08553729 -0.056275006 -0.14237167 0.040207192 0.12505342 -0.1534129 0.12712617
-0.13621622 0.06266118 0.11143147 0.13737683 -0.16844651 -0.013480656 0.06680047 -0.022975951
0.040594634 0.06707567 -0.15184988 0.050040368 -0.023223553 0.10651067 0.016679283 -0.054546785
-0.091090485 0.057440832 -0.136558 -0.041820664 0.03550655 -0.06050784 -0.026446229 -0.018358802
-0.10497011 -0.1328762 -0.16314569 0.09590974 0.023503572 0.034395404 -0.124408424 0.041895524
-0.043060467 -0.0014947364 0.06041295 -0.16044143 0.08628731 0.021423222 -0.11497224 0.05881384
0.124603376 0.07484966 -0.14894858 0.043161236 0.12676415 0.13296555 0.0021464736 0.10254208
0.043702345 0.0736474 0.07553415 0.1304928 0.009425416 -0.06660657 -0.013578211 -0.08701494
-0.095382355 -0.03456239 -0.14862898 -0.14791723 -0.14580943 0.11865372 0.026934847 0.07878311
-0.08868311 0.049688242 -0.10967736 -0.1693031 0.041613203 -0.14459674 -0.019728469 -0.072432265
0.13874145 -0.10877465 0.14601518 -0.017432632 -0.16336636 0.081598885 0.16386491 -0.0075558154
0.03907871 0.09628869 -0.056054015 -0.055591494 0.08681919 0.02918816 -0.007810788 -0.11472899
0.030648367 0.07819592 -0.025649229 0.10252938 0.07382437 0.14167097 -0.09230808 -0.0926267
-0.038580757 -0.020981891 0.052840993 0.12546852 -0.018648673 -0.06934639 -0.11928334 -0.1648422
-0.1374805 -0.101959355 -0.13292256 -0.08913669 -0.07846545 -0.13736624 -0.17746031 -0.17167196
0.01776642 -0.058731902 -0.15708433 0.09131327 -0.014043877 -0.01682385 0.14473854 -0.011773456
-0.0856273 0.0475174 0.06343261 -0.042257514 0.012457546 -0.0055921706 0.016793577 -0.15683748
-0.11363733 0.06653473 0.07569431 -0.005846346 -0.12967095 -0.15606749 0.10418276 -0.025959048
0.1534677 -0.16624536 -0.02178137 0.11354181 0.020206606 0.17197295 0.1544466 0.09295058

sequential_1/dense_1/MatMul f4 [3, 10]
00000000: 35fd 1e3f dae3 2ebf a8a3 173f 6728 94bd
00000010: 3258 603f 6685 ed3e 8bbe 49bf 7881 123e
00000020: b203 c13d a598 123e 59b5 9d3e 9567 293e
00000030: 7bd4 f9bd 976c 173f ab89 f2be 5167 98be
00000040: d82a ec3e 7e31 033f 2fb2 d6bc 1971 3dbf
00000050: 4b8f 6d3e b55b bd3e 10ec fdbe b2d4 2dbf
00000060: 6afc 44be 300d 243e 618a 05bf 840a 5e3f
00000070: 654e 55bf a17f 973c
0.62105113 -0.68316424 0.59234095 -0.07234269 0.87634575 0.46390837 -0.7880637 0.14307201
0.09424533 0.14316042 0.3080242 0.1654342 -0.121987306 0.5915007 -0.47370657 -0.29766324
0.46126437 0.51247394 -0.026208011 -0.740007 0.23199193 0.3698403 -0.49594164 -0.6790267
-0.19236913 0.16020656 -0.52164274 0.86734796 -0.83322746 0.018493475
