train/model_quantized.tflite (tflite, 7712 bytes, 4 tensors)

sequential_3/dense_4/MatMul f4 [3, 10]
000000 1d b4 24 be f9 1b 2d 3f 6d 66 21 3e 5e 24 e4 be
       -0.16084333 0.6762081 0.15761729 -0.44558996
000010 f4 bb d1 3e 4c 04 09 3f c2 f0 09 bf c8 b5 a2 bd
       0.4096371 0.5352218 -0.5388299 -0.07944828
000020 d0 82 0e 3d 80 7b f6 bb 3a d8 c2 bd 2f 2e 51 3e
       0.03479272 -0.0075220466 -0.09513898 0.20427774
000030 f6 ec fd be 0a 05 a5 be 7f 6d 38 bf 8a 33 18 bf
       -0.4959485 -0.32230407 -0.7204208 -0.5945364
000040 63 52 6a be b6 48 b4 be f6 5a fb 3e 35 c3 fd be
       -0.2288299 -0.35211724 0.49092835 -0.49562994
000050 9f 84 f7 3e 4a dd c4 3d bb ca d7 be 1a 5e dc 3e
       0.4834337 0.0961252 -0.4214686 0.43040544
000060 49 82 5e 3e 1f be 10 3f 34 c6 02 3f 57 d6 5b 3e
       0.21729387 0.565401 0.51083684 0.21468483
000070 2f 9f c7 be e0 93 f5 bc
       -0.38988635 -0.029977739

sequential_3/dense_4/BiasAdd/ReadVariableOp f4 [3]
000000 c5 8d b3 bd 63 d9 63 3d 80 0f 6a 3c
       -0.08767275 0.055627238 0.014285922

sequential_3/dense_3/BiasAdd/ReadVariableOp f4 [10]
000000 87 5b 86 bb 20 f9 e8 3b f2 a6 1c 3c fc 83 77 3c
       -0.0041002664 0.007109776 0.009561287 0.015107151
000010 71 c6 d2 3b 2c 3c 4f bb bb 77 c0 bb 7b 37 4f bb
       0.0064323475 -0.0031621559 -0.005873648 -0.0031618762
000020 fb 3e b6 3c 00 00 00 00
       0.022246828 0.0

sequential_3/dense_3/MatMul i1 [10, 546] scale=0.0020504997 zero_point=0
000000 01 f3 d2 31 25 f4 ea d7 28 d9 1c 2c f7 ed 14 ff
       0.0020504997 -0.026656495 -0.09432299 0.100474484 0.07586849 -0.024605997 -0.045110993 -0.08407049 0.082019985 -0.07996949 0.05741399 0.090221986 -0.018454498 -0.038959492 0.041009992 -0.0020504997
000010 e8 06 ea 0b 14 df 15 27 24 da 19 07 0a 18 f4 19
       -0.049211994 0.012302998 -0.045110993 0.022555497 0.041009992 -0.067666486 0.043060493 0.07996949 0.07381799 -0.077918984 0.05126249 0.014353498 0.020504996 0.049211994 -0.024605997 0.05126249
000020 0f 04 ef 27 23 dc 04 fa ef 0c e4 f9 0b eb e0 14
       0.030757494 0.008201999 -0.034858495 0.07996949 0.07176749 -0.07381799 0.008201999 -0.012302998 -0.034858495 0.024605997 -0.05741399 -0.014353498 0.022555497 -0.043060493 -0.06561599 0.041009992
000030 31 24 14 25 f5 1f ec d2 ce d6 30 05 fa 2e fa ff
       0.100474484 0.07381799 0.041009992 0.07586849 -0.022555497 0.06356549 -0.041009992 -0.09432299 -0.10252498 -0.086120985 0.09842399 0.010252498 -0.012302998 0.09432299 -0.012302998 -0.0020504997
000040 e1 05 e1 d7 cc 26 04 fd 28 d9 df fe 0d 2d 2e ea
       -0.06356549 0.010252498 -0.06356549 -0.08407049 -0.10662598 0.077918984 0.008201999 -0.006151499 0.082019985 -0.07996949 -0.067666486 -0.0041009993 0.026656495 0.09227248 0.09432299 -0.045110993
000050 e9 1f 00 1f 20 ff fc e5 ea 07 fe f9 fb cd ea ea
       -0.047161493 0.06356549 0.0 0.06356549 0.06561599 -0.0020504997 -0.008201999 -0.05536349 -0.045110993 0.014353498 -0.0041009993 -0.014353498 -0.010252498 -0.104575485 -0.045110993 -0.045110993
000060 05 dc 08 e1 11 e3 e0 dc f4 09 17 d4 ef fd f3 f9
       0.010252498 -0.07381799 0.016403997 -0.06356549 0.034858495 -0.059464492 -0.06561599 -0.07381799 -0.024605997 0.018454498 0.047161493 -0.090221986 -0.034858495 -0.006151499 -0.026656495 -0.014353498
000070 1e 24 d1 d6 ed df e7 00 e1 cc 18 0b cd f0 0b f9
       0.06151499 0.07381799 -0.09637348 -0.086120985 -0.038959492 -0.067666486 -0.05126249 0.0 -0.06356549 -0.10662598 0.049211994 0.022555497 -0.104575485 -0.032807995 0.022555497 -0.014353498
000080 30 fa 26 08 16 2b ee e0 d6 26 08 2f fa fc 05 06
       0.09842399 -0.012302998 0.077918984 0.016403997 0.045110993 0.08817148 -0.036908995 -0.06561599 -0.086120985 0.077918984 0.016403997 0.09637348 -0.012302998 -0.008201999 0.010252498 0.012302998
000090 e5 2c 1f f4 fb ec 05 07 01 05 e0 17 d0 00 20 fd
       -0.05536349 0.090221986 0.06356549 -0.024605997 -0.010252498 -0.041009992 0.010252498 0.014353498 0.0020504997 0.010252498 -0.06561599 0.047161493 -0.09842399 0.0 0.06561599 -0.006151499
0000a0 00 24 eb 16 df e4 e3 d7 04 26 2b 27 e6 27 f1 15
       0.0 0.07381799 -0.043060493 0.045110993 -0.067666486 -0.05741399 -0.059464492 -0.08407049 0.008201999 0.077918984 0.08817148 0.07996949 -0.05331299 0.07996949 -0.030757494 0.043060493
0000b0 11 e3 29 24 24 31 fb 23 e9 fc 23 f7 1b 30 1b 05
       0.034858495 -0.059464492 0.08407049 0.07381799 0.07381799 0.100474484 -0.010252498 0.07176749 -0.047161493 -0.008201999 0.07176749 -0.018454498 0.05536349 0.09842399 0.05536349 0.010252498
0000c0 2b 20 13 d9 19 cd d2 29 fc ec ea dc ff ec ed 04
       0.08817148 0.06561599 0.038959492 -0.07996949 0.05126249 -0.104575485 -0.09432299 0.08407049 -0.008201999 -0.041009992 -0.045110993 -0.07381799 -0.0020504997 -0.041009992 -0.038959492 0.008201999
0000d0 d9 07 01 13 18 ee e4 ee 15 04 d6 dc 0a dd fa d4
       -0.07996949 0.014353498 0.0020504997 0.038959492 0.049211994 -0.036908995 -0.05741399 -0.036908995 0.043060493 0.008201999 -0.086120985 -0.07381799 0.020504996 -0.07176749 -0.012302998 -0.090221986
0000e0 2e 27 07 30 e6 d0 d6 e3 2b e7 1e f8 fc f9 eb cc
       0.09432299 0.07996949 0.014353498 0.09842399 -0.05331299 -0.09842399 -0.086120985 -0.059464492 0.08817148 -0.05126249 0.06151499 -0.016403997 -0.008201999 -0.014353498 -0.043060493 -0.10662598
0000f0 00 10 f0 09 d3 fc 18 da 1e f1 29 0b 10 cf ef f9
       0.0 0.032807995 -0.032807995 0.018454498 -0.09227248 -0.008201999 0.049211994 -0.077918984 0.06151499 -0.030757494 0.08407049 0.022555497 0.032807995 -0.100474484 -0.034858495 -0.014353498
